model/parameters.npz (npz, 876526 bytes, 6 tensors)

w1 f8 [784, 128]
00000000: 31ae 9326 8543 9ebe 7f01 f299 6ccc ac3e
00000010: 23bd 8399 c2c2 b13e 8882 f1ef 3740 a53e
00000020: 264f c5cd ee73 9cbe ca20 05b6 aa1e 92be
00000030: 3998 6907 8408 623e d08d f132 8364 a2be
00000040: a753 7c0b c1af 58be 9863 6930 47c9 8f3e
00000050: efbf 65bf 8c13 a93e b520 f312 a286 873e
00000060: fbed 0804 6530 9dbe 62c2 221a d211 8c3e
00000070: 3501 a843 9c3e 96be 2001 1cd8 f451 a2be
00000080: 94ec 0e7f 1636 b3be b022 9ba7 5391 963e
00000090: 5d22 b95f c46c 86be 046f 6edd 440b 9a3e
000000a0: 5807 6d8d 2785 a83e 8e14 d612 326c 8e3e
000000b0: 9820 dba2 3199 9bbe 2922 cdef b8b8 7dbe
000000c0: 6212 a239 5e46 2e3e 9618 a8b2 0421 b0be
000000d0: 6d6e f02a 5e02 7f3e ed11 8ba4 7d77 b1be
000000e0: 4a81 148d 0e59 923e dd12 9e24 7dd1 a9be
000000f0: bb8e ba05 539c 843e 377d 64ad 17b0 a5be
00000100: dd20 4053 3b1d 6fbe 76bf e8e7 e216 95be
00000110: 8b3a 640e 3e98 a93e 3da5 294e 5a70 94be
00000120: a4a3 e3fa 26a5 a13e 4bb3 d726 bde0 75be
00000130: 8e82 6e80 9300 993e 785c d0a4 6377 a83e
00000140: c630 0c88 be2a 90be 1379 41b4 3621 a2be
00000150: 631b f4c3 9e89 a03e 6576 d777 3c59 783e
00000160: 4861 11ec e728 8dbe 63ae 143b 6789 67be
00000170: 01ec 2f33 42fc 54be 9761 608e 607f 85be
00000180: d0d5 ba08 8b0e 913e c954 9ca6 324f a0be
00000190: 924d 610b b202 a73e 95b5 2c85 fa5c 81be
000001a0: 45c1 15f0 269f b33e 580a d85e 3d1d b13e
000001b0: f1b0 5ef9 75db 72be 7856 71ed cc5d a6be
000001c0: 54c3 ce4f 2d90 86be d7fb 9ab4 ebc1 a73e
000001d0: 0c5d 48ac 53fa b03e 8c60 1582 7997 a2be
000001e0: 1693 ff9a 8fb6 b3be dccb fd20 af55 a43e
000001f0: 8a04 59af f4d2 97be 3e97 5c7f 2f9d b2be
00000200: 8d4f 8542 d736 a53e d464 16a2 3439 a7be
00000210: fcb8 f336 c4f2 943e 32e3 761f bee1 a9be
00000220: fee4 f212 c334 993e 93b3 0736 b248 a13e
00000230: 29d6 09e5 83d1 9b3e 563c 8c2c 8b6c a23e
00000240: e11d 5baf 8b6b b13e 511c d944 b2b8 a53e
00000250: eb84 b18e d68e 9d3e 9d93 dd2f 6de4 a2be
00000260: 93cb 5a02 8c7f 923e a8f2 a331 2bad 913e
00000270: f308 36e9 85a9 79be 05c1 52c6 d635 943e
00000280: 26b8 c003 41a4 913e 7789 547f 29a0 71be
00000290: f28b 81fb 740e 9cbe 52cf cea2 0f26 9ebe
000002a0: 639d 5c37 bcc1 773e cb15 a0fe 36e2 8dbe
000002b0: 820b 1a9b cde2 83be bd9a 3d96 57d2 a5be
000002c0: 88a5 cd29 d93b 67be 9648 a38b 1b13 7d3e
000002d0: 2137 220f 6bb7 a33e 9c6e 881b f32a 843e
000002e0: eee5 4778 0aac 893e 951b bd7a c4c1 423e
000002f0: 5a3a 5415 d19e 143e 786b 0cff 0911 7e3e
00000300: 0798 4513 93c2 8dbe 657c 2acb ae4c 41be
00000310: bb62 3adc fdb7 a9be 926b 0f6e a9c4 91be
00000320: ab19 ca6f ac37 90be 5cf7 ce70 c169 b0be
00000330: b088 6717 e043 9cbe 3733 72bc 084c a4be
00000340: c235 cfb4 d116 afbe 2870 9937 b686 98be
00000350: 2083 eea2 5b3e 633e 5c40 caa1 3ba2 7d3e
00000360: 4782 ea88 0ad9 983e 92f9 6d08 967b 84be
00000370: b585 6254 89ab af3e 83ad 229c 1492 a83e
00000380: bf1f cef0 2939 833e 6f8d fbc9 8bc2 863e
00000390: 9889 2532 d4aa 7cbe ac4d 11ca fa03 b4be
000003a0: 4efe f2b3 102c 5b3e 3eb1 0829 ae73 af3e
000003b0: 932a 26a3 ec22 a53e b6dc 68f9 d621 9bbe
000003c0: 95a6 4a40 f356 833e 6178 547d 9b6a 9cbe
000003d0: 4c0d cca4 7fc6 91be 1a72 627e fd9b 5c3e
000003e0: ea32 cbce 26e3 84be c162 754f a3c0 a5be
000003f0: 2f76 4e86 e506 90be 61b9 995a 0e91 66be
00000400: 2ee0 b9cb 8d9d a0be 8dd4 ca78 5779 a4be
00000410: c4b7 bcdb ccb2 713e 9b50 6dfe 8790 7a3e
00000420: 2e54 a185 8da8 a4be cf1d 9c82 2456 863e
00000430: ff83 981c 655c a43e 43b9 ba09 94fa 993e
00000440: cf9f 324c 2ad3 9d3e a87a cce4 3656 a0be
00000450: 3704 6e62 f919 6c3e 5870 f4f4 1528 a3be
00000460: 5c6d 9e95 e34f ac3e 09e1 48c2 8148 b1be
00000470: e706 166e d337 acbe a4b7 e595 c69b a3be
00000480: c2cf a705 dca4 93be 6453 a25b 525f 8e3e
00000490: 9908 6695 fc90 59be 01fd 7a11 cdc7 983e
000004a0: 2d78 d2bb 82ac ae3e 2ad2 f600 36cb 8cbe
000004b0: 6fa3 fdbd 5e66 813e c7b6 e22d c40c a1be
000004c0: 49f0 2cdc 7569 52be 8e32 6515 dc06 a3be
000004d0: 842d dff6 f3b3 a63e d803 e725 e023 a63e
000004e0: 362a 82f6 ef3a 803e 4fbf 6320 23ef b2be
000004f0: e0f7 6564 ea68 a03e c622 e970 b875 88be
00000500: d580 5209 4f70 94be eb96 4103 f989 98be
00000510: e123 0817 dd98 2e3e 4e8a 8772 84ca 8ebe
00000520: bce8 0928 3791 a5be 4115 f5a4 bea5 86be
00000530: a3a2 eb7e 3210 9e3e 8ee6 ffb4 b47e 903e
00000540: 27f8 3e2c d8cd ab3e 337e ef42 16cd 4fbe
00000550: f350 7e86 23b9 88be 92c3 030b 3deb 7c3e
00000560: 72fd ba9a d98d ae3e 43cf d11c 13f7 973e
00000570: 4a42 e35c 87af b2be 1418 ad0c f1a6 9abe
00000580: 7229 3c0e 3538 903e 7fbf 08a7 8de5 95be
00000590: b087 206d 3e8f a63e af51 e9df 124c b0be
000005a0: 3fec c5f6 e64b b1be fe6e ac05 b936 8f3e
000005b0: 541e 23b7 3d77 6f3e 760c 8a51 091a 403e
000005c0: 6364 29a0 df10 a63e c746 abcb 66db 983e
000005d0: 9aab 97c5 5dba 98be 961f c02d 4329 9cbe
000005e0: 3ab1 eec1 e91f 743e 502f 4c89 662e 823e
000005f0: 8518 a42b d695 97be 8418 f218 ee20 623e
00000600: 8780 166f 9a40 a3be 0a44 bb4e c975 963e
00000610: f79a a1e6 e8fb b03e 5cbd 8446 df80 9ebe
00000620: f30b d65d 66f3 9dbe 731a 5abe e303 8c3e
00000630: eb1d 65a4 e1e6 793e 600e 6f1a 3d4a 703e
00000640: b814 92d5 33b8 78be b28e 9453 d251 a03e
00000650: 3e01 56d7 4cb7 563e e56b f781 88af a4be
00000660: bbb9 1e9d 03f3 973e 876f 7f35 0a28 9dbe
00000670: a33b 52d2 e907 92be 127e 076a 3133 b6be
00000680: 225e 70bf 2473 963e 28f0 f8c3 1416 97be
00000690: 26c0 178c 3888 b7be 6bc0 8c2f a406 5d3e
000006a0: 952a 6757 a20a 803e 813b b024 8a64 90be
000006b0: 531e fdce 6c7f 953e 4cd3 dc2d 425c 8abe
000006c0: 800d d6fb 5581 a93e 8675 74a6 a9eb 84be
000006d0: ec94 f1b5 79c1 99be cf12 14f6 c60e 92be
000006e0: acfc d07a 608b 8b3e 1923 5d85 e7f5 94be
000006f0: c4b6 1e32 e786 a3be 1097 9eea df56 823e
00000700: 6dc2 5d91 70aa 993e dfa1 ba4c 373c 9abe
00000710: 226c 0035 56b8 7bbe a83e 0666 1f62 983e
00000720: 8b1b fbcf 8436 94be 1e4a c050 456c 93be
00000730: dc39 0464 c684 a0be 69f5 4bc9 cefb 903e
00000740: 3e1c 56a1 288d a7be a80c 68d3 c983 a73e
00000750: 8242 683f d310 98be e6e9 ca5a 216d a53e
00000760: d4aa af01 39c9 90be be99 e3f7 503a 9b3e
00000770: d2d8 f6ab 6af2 8b3e 6621 4c0f 9440 a0be
00000780: 3564 e010 7627 a7be 13da 535e 1213 b33e
00000790: 0f75 555c 0203 803e 6b19 4518 18fa ae3e
000007a0: 28ad b369 eec3 a8be 481c 85ec 2705 a13e
000007b0: ae50 b5c6 a9a8 a9be aed3 78ad cb7a a53e
000007c0: 7f4b 8b8c 76ff 6cbe 22ad 02f0 c906 9b3e
000007d0: 621c f6a7 3647 93be 1827 465a c1db 903e
000007e0: 6d61 de7c 5450 74be c7ef 3ec5 23a5 8fbe
000007f0: 2e4e 6e12 afee b4be 9ef8 a8c4 cbdd 76be
-4.5096502405861534e-07 8.582631386839085e-07 1.0586250934160715e-06 6.333247880679203e-07 -4.2398069212866837e-07 -2.700059465077512e-07 3.358957283566599e-08 -5.481429975581345e-07
-2.2991131414554302e-08 2.368259616910233e-07 7.473339554264057e-07 1.7528169269352648e-07 -4.349506106703427e-07 2.0913490767417044e-07 -3.3146995162549013e-07 -5.459827862875105e-07
-1.145081565774921e-06 3.3628467797619347e-07 -1.6707831195147653e-07 3.880861333905918e-07 7.307569614772072e-07 2.2666632430390405e-07 -4.1124841030889855e-07 -1.1072148349307087e-07
3.5244593468229182e-09 -9.613620003414708e-07 1.1551845589856335e-07 -1.0411000791892003e-06 2.7340469184631093e-07 -7.694457704187757e-07 1.535612480413297e-07 -6.46348633979229e-07
-5.7954688520489734e-08 -3.1425654603826866e-07 7.627814085103038e-07 -3.045630149524548e-07 5.258657347603725e-07 -8.150147730980429e-08 3.725625678467278e-07 7.291544733581485e-07
-2.409066226928218e-07 -5.403083851542933e-07 4.928582554582712e-07 9.070552483373413e-08 -2.1725735702377708e-07 -4.384057862081136e-08 -1.9544162909568e-08 -1.601693561676894e-07
2.541662602427275e-07 -4.860570019549981e-07 6.857672108042043e-07 -1.2936590340057817e-07 1.1695437368252481e-06 1.0200868659776597e-06 -7.024880085857164e-08 -6.665709077017923e-07
-1.6810887606751555e-07 7.080287584766958e-07 1.0119580774509621e-06 -5.540757720785628e-07 -1.1749940362844956e-06 6.060213895000855e-07 -3.5500595116719814e-07 -1.1094812157412647e-06
6.322330863652772e-07 -6.921130230485702e-07 3.121540918656164e-07 -7.713379649921212e-07 3.756001829103243e-07 5.151024247675264e-07 4.1452674274327e-07 5.490779467503793e-07
1.0383188828055433e-06 6.473502566849879e-07 4.4044794717506834e-07 -5.630341488425715e-07 2.7564510883119624e-07 2.633994867910351e-07 -9.559914309311114e-08 3.011570640183494e-07
2.6288057930728737e-07 -6.566060036355349e-08 -4.1807401940911295e-07 -4.492502821376929e-07 8.850089535922846e-08 -2.2265055515961253e-07 -1.481618717055158e-07 -6.503358176257776e-07
-4.327629208359463e-08 1.083114708228697e-07 5.875968141098541e-07 1.502616109463063e-07 1.9127156404545973e-07 8.734364196869074e-09 1.2002639622789835e-09 1.1200665973565612e-07
-2.2172970094296352e-07 -8.055727062249457e-09 -7.664775058701228e-07 -2.647669657387254e-07 -2.416592080129602e-07 -9.782974672435142e-07 -4.211833791995451e-07 -6.048979849390683e-07
-9.265284944771218e-07 -3.654691266058375e-07 3.58439716720769e-08 1.1039421860871025e-07 3.7026132641320186e-07 -1.5260843985380274e-07 9.438414643356422e-07 7.322617465907301e-07
1.4322471777691166e-07 1.6957480840967903e-07 -1.0679401588534327e-07 -1.1930194790025135e-06 2.530601794499226e-08 9.373389549586522e-07 6.299145012695233e-07 -4.043010845308162e-07
1.4409161521360596e-07 -4.2343787971962307e-07 -2.648738799822662e-07 2.6644521166327626e-08 -1.5562259338685964e-07 -6.482747768972852e-07 -2.388200129268466e-07 -4.2033615099744116e-08
-4.951788449966389e-07 -6.10172479284731e-07 6.593182083340455e-08 9.896075390858598e-08 -6.156685785722095e-07 1.6641985328017743e-07 6.068026376407049e-07 3.8711460501995753e-07
4.444251084458903e-07 -4.868738386654076e-07 5.234305105236723e-08 -5.70910723060861e-07 8.437653307049263e-07 -1.0301607825791015e-06 -8.409640167990823e-07 -5.843788064960147e-07
-2.92718146304617e-07 2.262916448155061e-07 -2.381052274228294e-08 3.6925782030332413e-07 9.141525577798615e-07 -2.145304738139872e-07 1.2963923178989092e-07 -5.081256764427193e-07
-1.71474690100227e-08 -5.670426997200598e-07 6.766003772749732e-07 6.598275595280299e-07 1.2092459234323298e-07 -1.1285620771759777e-06 4.890509408964645e-07 -1.822400510101682e-07
-3.045604526994679e-07 -3.656589371347688e-07 3.5619739868194935e-09 -2.2941144918384909e-07 -6.427540740338378e-07 -1.6873657891263408e-07 4.479776398018224e-07 2.457938323981883e-07
8.286261494667251e-07 -1.4808550911502555e-08 -1.8420218172706568e-07 1.0773129832990567e-07 9.105831870400567e-07 3.5710834540087505e-07 -1.1137520803847076e-06 -3.9714747106613815e-07
2.4169027156074155e-07 -3.2628614746436923e-07 6.723268717349214e-07 -9.71386611721679e-07 -1.0309513199513847e-06 2.325606399338514e-07 5.860959263883431e-08 7.497940533431131e-09
6.576154308420855e-07 3.7039871940174216e-07 -3.684758148314257e-07 -4.19634302196032e-07 7.497020291955353e-08 1.354608839754676e-07 -3.5144834566214124e-07 3.376721046618309e-08
-5.737649343869199e-07 3.3468161462791363e-07 1.0123266301010532e-06 -4.5453618337500003e-07 -4.4630141168166644e-07 2.087294596506544e-07 9.649202423633602e-08 6.068495982032587e-08
-9.20874660016732e-08 4.863624446832346e-07 2.115593874174351e-08 -6.16481205580204e-07 3.568719907321074e-07 -4.3446430231046264e-07 -2.6868151998480137e-07 -1.3232214898169567e-06
3.345277827539451e-07 -3.4401199753057065e-07 -1.4026232267837305e-06 2.7032515756409473e-08 1.195187839377858e-07 -2.442707553459726e-07 3.203414982066945e-07 -1.9640017162041407e-07
7.601147370837387e-07 -1.5587029909221706e-07 -3.837907822156682e-07 -2.690810472913192e-07 2.0522207702826888e-07 -3.123367425706441e-07 -5.819489141600376e-07 1.3663883652070498e-07
3.824499271642949e-07 -3.909352243960673e-07 -1.0326529076324364e-07 3.6333935862166694e-07 -3.011966356155762e-07 -2.894242505667774e-07 -4.922941983247637e-07 2.5307571975538093e-07
-7.01886451779587e-07 7.0079560182713e-07 -3.58607223389442e-07 6.385532081634287e-07 -2.501312807423165e-07 4.05725806630621e-07 2.082209302597375e-07 -4.843550685815938e-07
-6.90047302634385e-07 1.1369287389852413e-06 1.1929686942027892e-07 9.231844591360511e-07 -7.380651426946743e-07 5.072397124904931e-07 -7.646930390383885e-07 6.401440612648556e-07
-5.401280273532824e-08 4.027265134802376e-07 -2.872672339661003e-07 2.512100201404213e-07 -7.567476176110735e-08 -2.3577419716407198e-07 -1.2476658157498847e-06 -8.518394271296161e-08

b1 f8 [1, 128]
00000000: 46bc 8dcd 05e3 b5bf 576d 22b7 b145 a4bf
00000010: 9617 8629 30bf c1bf 0b0b 9afc 793b 94bf
00000020: 3930 a6ef c41f b53f 9b67 f719 6856 a83f
00000030: 58b5 cb2e aa9c a8bf 4288 d8fd d186 ac3f
00000040: 94e3 d739 13de 9b3f 8c64 bbdc 2a56 b4bf
00000050: 1cd4 3ca6 7fdf c3bf 512f 8c11 b39c d43f
00000060: ce36 db23 c3eb c8bf 1e35 ea00 c955 b4bf
00000070: f797 3c70 8731 ba3f 55cd 5774 7b55 b0bf
00000080: 3dbc e683 6e39 c2bf a0a7 d3e4 c716 b6bf
00000090: 0a42 d2bb 93df 9b3f fc3c 1a47 7efd 89bf
000000a0: d523 7413 86dd c3bf aae6 fc52 2eaa b53f
000000b0: 0a9e 3085 66f4 cb3f 7ef5 e4e1 887c afbf
000000c0: c680 23af 1acb 91bf 3c94 0e95 26be b6bf
000000d0: c060 49bb 52e6 b33f 464e 4fde 0b87 a73f
000000e0: 6fc8 81bd c001 b7bf fc3e 3d6a 8e6a acbf
000000f0: 34d7 f785 6a51 d0bf 65ad ecbc 4cb0 bdbf
00000100: a772 6106 176c a2bf ef94 457d 21e1 7e3f
00000110: c031 d660 e4f4 c0bf 474f 3521 2881 a8bf
00000120: ebaa 67a1 8717 c6bf c0d9 dd95 c7e4 a1bf
00000130: 6571 c157 0469 babf fefe 51ae 5dce bebf
00000140: 499a 8691 df1a c1bf 2965 56ff c7ac ae3f
00000150: 2b7e 8fc6 4483 c6bf f3f1 af22 d539 c6bf
00000160: 1dda f396 e022 b83f 6cf8 e34b c6a2 82bf
00000170: 2434 1336 f906 babf 55dc 32e7 7deb be3f
00000180: 50a8 0c54 4c1c b53f 298d ed28 746b ad3f
00000190: f6a5 fcad 3682 c2bf 84e4 f177 e6bf cbbf
000001a0: 14e5 d904 c573 acbf f88c f8a2 9598 99bf
000001b0: 5838 9f51 9aa3 b0bf 6db5 61cc 83bb b53f
000001c0: 0703 4666 72cb d1bf 34ad 4eb3 2f0d a7bf
000001d0: 0a3a 8b55 97b8 b5bf 9813 9c5a d1e0 66bf
000001e0: 2db7 8f01 c075 a7bf 5cba 99b5 e425 91bf
000001f0: 2d0e 04c9 927a c6bf e24b f654 f69f cbbf
00000200: 9658 6aa8 c149 bdbf a4f7 81ab 6e80 b53f
00000210: 8880 ab1e a44c b3bf a3f7 d798 741d a3bf
00000220: 7b22 7a2e cae5 babf 66dd af2e bbdd a9bf
00000230: f10b 6b88 09da aa3f 5561 d0cd 07f5 a9bf
00000240: 8686 4c9b 57eb c83f d6d6 72d7 16b2 c0bf
00000250: ea2e 74c1 ed34 be3f d837 4a0a 3ab3 a33f
00000260: ff5d 85dd a1ef b23f c029 74fe 4082 40bf
00000270: 295e 6c22 0a74 88bf 118b 3642 3740 b3bf
00000280: d3e0 e11b fe82 9fbf 07ed b624 9f9f a13f
00000290: a5ab d9a5 3ab8 84bf a079 9543 d087 a73f
000002a0: d9aa af58 1d2a c4bf f08d 3d58 026f b2bf
000002b0: 52dc 3a89 6c5a 9f3f 590e e976 3297 c63f
000002c0: 74fd 0503 432f d03f 8ded 13a2 dee3 b03f
000002d0: 28c0 4156 f010 c4bf 0152 46ca 9dac b83f
000002e0: 0c09 69e5 79b2 b0bf 5215 fd73 cb45 b83f
000002f0: 6145 a570 bec9 b33f c585 0ead b30a acbf
00000300: 2815 47c2 abde 7bbf 9008 0977 6d40 b33f
00000310: 35ee 805d ce3b 903f 8b95 ea9c b842 b0bf
00000320: 09e7 7d70 5df4 b63f 3d69 c69f 8783 b13f
00000330: e1ea dfbc 1d32 a3bf 4dc9 6762 fba3 c13f
00000340: 1178 12f5 23ba b4bf e737 877f fdfd 8fbf
00000350: 72f7 ddfd a0ad cdbf bb3e 12fa de9c c0bf
00000360: 99d6 1895 0e82 c2bf 3025 397b 6440 c5bf
00000370: 641d ace9 93db c9bf f80e 5d40 24fa 94bf
00000380: 1bdf 8727 450d b13f 7db9 d0ee 2fca b03f
00000390: 165a 0e52 623c b53f cfb1 94da 7c55 c63f
000003a0: 2545 6943 0749 c4bf b12a 057e 96d3 b63f
000003b0: d793 3645 4727 cdbf 8f71 e4ca 1285 c2bf
000003c0: f015 2c41 d6fa b33f c67f 1d30 f853 84bf
000003d0: f6d8 79bb eaf8 90bf f6ee a8ef 212c d2bf
000003e0: 09b8 a808 b0b4 a93f 836f 7fc0 f752 b63f
000003f0: 383f a87a 38cb c5bf 7882 e0b2 1570 8cbf
-0.08549534099960096 -0.0395942245533784 -0.13864709880379839 -0.019758134882532235 0.08251601076898475 0.0475342303941055 -0.048070257389421556 0.05571609710411042
0.027214336781955575 -0.0794398106476299 -0.15525813691206813 0.3220641776431324 -0.19469489336773055 -0.07943397781692282 0.10231825342324884 -0.06380435552983006
-0.1423776763963093 -0.08628510796157096 0.027220066393569588 -0.012690531296611678 -0.15519786786924664 0.0846280052764096 0.21839601043141982 -0.061496999335285615
-0.017376343669526027 -0.08883896960340193 0.07773320267131378 0.04595219696753054 -0.08987049700388793 -0.05550046011796714 -0.2549692447931762 -0.11597137081542071
-0.035980910805596004 0.007538920228715925 -0.1324735138736184 -0.04786038785337481 -0.17259307271100197 -0.03494857506204907 -0.10316493170234294 -0.12033639436594609
-0.13363260846854733 0.059911966246725186 -0.1758810014280113 -0.17363990968432538 0.09428218541493334 -0.009099530402178334 -0.10166890688124447 0.12078081984042062
0.0824630456160389 0.05746043204887947 -0.144598803476853 -0.21679383141216502 -0.05557075199335251 -0.024996126243547828 -0.06499638073657488 0.08489249934946992
-0.2780424116863717 -0.04502247871217904 -0.08484788740609175 -0.0027927483505458366 -0.045820236387824266 -0.01674611433412064 -0.17561564269281985 -0.2158191599706632
-0.11440668451027344 0.08399097144316997 -0.0753882002713927 -0.03733410230414271 -0.10506881365484759 -0.05051979966077162 0.052444742109876936 -0.050697559236314284
0.1946820743842645 -0.13043485183668818 0.11799512837404405 0.03847676635369596 0.07396899851061532 -0.0005038087228126861 -0.011940077949062449 -0.0751986061718919
-0.030773134662440093 0.03442094157386504 -0.010117014108990416 0.04595805001257536 -0.15753523664837735 -0.07200636534030713 0.030618377567148088 0.17648917013331092
0.2528846292043092 0.06597701508501626 -0.15676693164596256 0.09638391674372572 -0.0652233300288893 0.09481498319390383 0.07729711771141502 -0.05476914870747466
-0.006804152424995359 0.07520183712134298 0.015853142220505673 -0.06351808386769713 0.08966621395475384 0.06841323519475835 -0.037491730981818135 0.13781683258964464
-0.0809652779884973 -0.015621166662551601 -0.23186123271801368 -0.12978732309828964 -0.14459402351501607 -0.16602760330924005 -0.20201348218709392 -0.020485464504658574
0.06660873618227152 0.06558513241245652 0.08295263770410374 0.17448387787716377 -0.1584786490589433 0.08916607453026405 -0.22776118163633782 -0.14468607813695342
0.07804621783369448 -0.009925784080848998 -0.016574542706131866 -0.28394363788878196 0.050206662232412276 0.0872034878697701 -0.1702643011963063 -0.013885659715073148

w2 f8 [128, 64]
00000000: a292 ee80 61e8 b2bf e89e 0bd3 3fca ccbf
00000010: b371 b860 8563 a4bf 39bd 72d5 8f80 c3bf
00000020: 44b6 7202 c0a6 453f ef95 e9db 2840 b2bf
00000030: 2405 b585 6626 b7bf 82da c15f 00c5 c8bf
00000040: e1b7 6335 50f8 97bf c909 d60b d9de b23f
00000050: 7ae2 654c c093 b53f a159 9812 caa7 a43f
00000060: 565c cb67 4960 bc3f 5783 b8cc e947 9a3f
00000070: c5aa fd77 2692 d93f 3162 616e 5d4e ccbf
00000080: f978 e10a 09b8 adbf 9a49 a762 3a61 adbf
00000090: 5bf5 3d4e 2f90 b5bf 6b46 4e12 c472 cebf
000000a0: 980d fe84 d68a ca3f a5c6 2a93 2dd4 d0bf
000000b0: c61e 23b3 01c1 9abf c83b 5fe5 c2b0 c5bf
000000c0: 456a cf69 00d7 bfbf 7da7 7788 50e8 c53f
000000d0: e9dc cbf3 643d 823f f4d6 533f 0a9c a73f
000000e0: c0be 5615 bb05 b1bf 16b0 fa47 d126 9dbf
000000f0: c26c aa8b a2df bc3f 0b6e e7d1 0312 77bf
00000100: 9141 1494 3020 bcbf 3831 70ee 6215 c0bf
00000110: 2662 505c 4620 a6bf 8818 169a 2754 923f
00000120: 4686 db22 36e6 d13f e248 c19c 6e68 853f
00000130: f91a 0521 169d a13f 131b 1f8d 5d28 babf
00000140: 8f34 6291 c14e bc3f 4045 05da 6946 b3bf
00000150: 2e53 c355 fec4 bc3f 718c df0f 1b3f b1bf
00000160: 53b8 e5d7 dff3 b23f a634 eb3f 69af cabf
00000170: 7e05 68f6 7e5b b03f 0191 fb41 8259 c13f
00000180: be83 52a7 b361 b93f 7810 ef3e 9ec9 d33f
00000190: f396 6039 765f 833f daa2 4b56 93a3 a63f
000001a0: 5d0d e163 e087 9abf 0144 0896 5cf9 d13f
000001b0: a84c f4d0 c8e9 b2bf 280b 2807 4c7a 913f
000001c0: e336 3d1a eb35 ab3f 0a43 2077 f713 c43f
000001d0: 0064 7f60 47a1 953f ce95 0c38 ee47 813f
000001e0: 1fd9 82ef 9df8 bb3f 5ee3 f73c 1b7f 973f
000001f0: 456c 9868 e997 c3bf fd17 3f83 ce41 84bf
00000200: 1e00 7bfa a773 c0bf 8e95 43df 86f4 aa3f
00000210: 4e5c 14ec f0c6 c0bf 81bd ae4a 2707 bd3f
00000220: 2514 5ec5 f70d b1bf be94 5fb4 8610 ca3f
00000230: 758c a6f7 72b6 c1bf 5c7e 25dc 65f2 c0bf
00000240: 2ad3 a275 855f 9fbf 23f0 7afb e00e c0bf
00000250: f04b 648d 2867 c7bf 5aaa aaef fa99 893f
00000260: 9511 e0a1 461c b3bf 8f96 43bb 20f6 cebf
00000270: 0a99 8490 c4b4 b9bf 9fd6 d3da 3f28 81bf
00000280: 231e 1a80 945f bf3f c7c9 a7be 29fe be3f
00000290: 045a ef41 b09a c4bf 6733 8df4 caa3 cb3f
000002a0: f63e 963c 9c59 60bf 2dd9 d0b5 6522 b53f
000002b0: c01a b73a 64a2 babf 4107 867f b045 9fbf
000002c0: 68cb b6ef 2818 b23f 08ac e5a0 b912 c23f
000002d0: 00ca 7796 e804 b1bf c658 71c2 8e28 b93f
000002e0: a400 238b 59dd b6bf 38f4 8c55 3e33 bcbf
000002f0: c8df 03bd 5006 c0bf a600 0216 3fb1 c0bf
00000300: f82d 028f aed1 a3bf 6e69 715d c433 c0bf
00000310: ebbd b980 61d1 c1bf 4200 0ae4 19b0 b13f
00000320: a38a b602 e110 c3bf 784b b8af b41e cdbf
00000330: 0ea3 f3f2 5aff c0bf b054 371c 467e c4bf
00000340: d92f 1d70 8416 b5bf d6d7 ea65 e2cf bf3f
00000350: 64da 32d7 9e51 be3f d918 9dbe 7b8b bf3f
00000360: af0d 9925 28f0 bbbf 7c34 1d8f a374 c9bf
00000370: 1736 f109 4ff9 bebf e76d 4f61 5907 c3bf
00000380: fc16 c5e6 846d abbf ad50 caf4 7147 ba3f
00000390: 1106 3d5d c94f ce3f 3f86 88e6 8840 b63f
000003a0: 865f aa0f a3ab bebf e55a 31c5 f8f0 c73f
000003b0: c203 e8e6 b0a1 c23f 42d8 e7d8 955c cebf
000003c0: a6d9 a13d 00d8 c03f 7616 da54 0e6c c53f
000003d0: 62dd d21d 49e7 b43f 47a1 0176 44fd 9abf
000003e0: 874d 3007 2449 c0bf e3bf 8fea d067 bcbf
000003f0: 44cf cb8a ff91 863f 2561 b0da 2609 76bf
00000400: 94a6 e34b 34e3 b03f bd91 c1c1 6c7f be3f
00000410: a2ca 978d b1cb 993f 403d 692b 1d84 a4bf
00000420: e3b7 b5b4 5514 ae3f 7df6 3c75 91d0 cbbf
00000430: f613 a8b2 abea 96bf 60c6 b2b3 d615 b13f
00000440: 1d99 7819 86ec 91bf 3f3e 3ce0 93dd 7cbf
00000450: 632a fdbf b394 be3f 67e1 4990 0a5e a63f
00000460: d906 cc60 cab0 a73f 0b83 ee7c 6492 b03f
00000470: 6c63 60dd 4787 ba3f f435 d9f5 4727 c7bf
00000480: 3b29 3a9e e54a ad3f 942e bac9 5cb1 a6bf
00000490: d177 faa0 4e15 a33f 676d dfbb 2b4c d1bf
000004a0: e35f 5c38 4011 a83f 7efb 0f0d 98fd d2bf
000004b0: cc21 4224 b885 a33f 728a c194 202b b63f
000004c0: 3566 e76d 5740 ae3f 6f0f 722d a662 a03f
000004d0: 1908 ead5 ce24 b23f 3020 2b84 99ea d1bf
000004e0: 7971 62fa 1653 ac3f 693e 6dd1 5e49 983f
000004f0: 7dbf b9e3 5e02 893f d112 b2c6 8d44 8b3f
00000500: 5f84 3ae0 bb61 82bf c186 2846 d44d aa3f
00000510: 9ca8 561e 0bbe b53f f8d7 2b47 8dcd ad3f
00000520: 104b 14f5 a89f c63f 209a 9b25 08b5 63bf
00000530: 6d7e be20 0413 ae3f c06c 62c7 5f55 ba3f
00000540: 8401 363c 5d4d b23f 17ba 369d 6ada b5bf
00000550: 2ab6 b4f4 3cb6 a0bf 37c5 2bfd 124c 973f
00000560: 98be a085 fc2d c13f 9761 dea8 dc0c 823f
00000570: 9489 422d 0e54 b13f 27e3 3701 fa28 6bbf
00000580: 1674 0600 1ada c7bf 6261 cbfa e596 bdbf
00000590: 8714 db14 1ff7 afbf e5ae addd 8f74 b23f
000005a0: a690 1bec 2750 b53f 6988 2a02 12a8 76bf
000005b0: 4480 b3b4 0d85 75bf 58b9 cf9a d439 d13f
000005c0: 2fe9 80ad 3112 973f 1a53 53df 9e4e aabf
000005d0: 991f d8b9 de57 a73f 12d6 4258 eb2e 923f
000005e0: bdef e2eb f02b 763f 2c13 3264 9299 af3f
000005f0: 4170 0d74 2d34 96bf b0dc e798 6967 afbf
00000600: 0d87 0d2a 8554 b9bf 0533 d78e adfd c43f
00000610: c055 ddd2 59f9 a63f 8d7f 4d1d 5af8 b0bf
00000620: 57c2 4719 7627 90bf 5a98 d3de 9c95 b63f
00000630: fa7e 3781 d586 c43f edac fea1 5e98 6ebf
00000640: 1e48 f3a1 9762 b43f 8140 1408 d2e0 b2bf
00000650: 1b10 e7ef e35e a23f 2902 9cd7 f5d0 933f
00000660: 8d3a 595e 6cf4 91bf 6f09 e4b6 14fa ce3f
00000670: b9bc f878 0500 c1bf cd88 f1fd 3ef2 b43f
00000680: fc83 270b 84ac c6bf a5eb c77a 4915 aa3f
00000690: d83e f7e4 b3e6 cd3f 0e34 e327 c515 b13f
000006a0: 67c3 056b 59e9 c7bf 891b 6a2b f7e9 c23f
000006b0: 4233 b027 f654 acbf 6c12 0414 92d8 9dbf
000006c0: 9caf 5446 e3f0 bebf 1f79 f9b4 25a1 b33f
000006d0: 6e79 30b4 f510 9abf 365f a71d d0c6 ac3f
000006e0: 13f7 bf71 511d 823f a2bb f26d 7d19 a53f
000006f0: c8a8 2107 6305 a53f d478 c38b f9aa 8f3f
00000700: 89da 0be0 39d1 c53f 5a6f 68a8 5a02 a53f
00000710: c9e6 49a1 e0b6 aebf 85ef 7536 6a6c c13f
00000720: c09e 580c 4411 b7bf 1d52 a666 3ae6 abbf
00000730: e681 bbd4 e74e a2bf 5870 657f c22a b23f
00000740: 2fc8 4aad aa22 b63f c6ed 7c6f 4b5d d83f
00000750: f5d0 1ffb a55e 97bf d465 02c7 086e bbbf
00000760: 400c b7d7 0401 ad3f 3bbc fc31 45b3 a0bf
00000770: 75b8 ac0b ef0f c3bf cfa3 2fcd 4154 aabf
00000780: 3bab 27a0 28dd b5bf 69dd b173 5245 c0bf
00000790: c48b 01d5 b657 b2bf b5b8 73bc 2842 b73f
000007a0: 9156 a209 a70b afbf c0d9 b07d 933b c6bf
000007b0: 2aeb c7a4 99b6 c43f e7bf e3bd d187 c53f
000007c0: ba06 03a6 183a c9bf 34d8 8e8c 3d3a b0bf
000007d0: dab6 4d9f a68d cdbf deb9 43df 7a09 b0bf
000007e0: 097c c913 23d8 bb3f 0c85 b1e8 cfc4 b5bf
000007f0: 3f95 b1f4 9a7a d33f 344d 417e 7d86 b9bf
-0.07385835073234628 -0.2249221592421613 -0.03982178502721769 -0.15236089632296926 0.0006607472941106492 -0.07129149788814691 -0.0904296947892545 -0.19351200748106484
-0.023408177622449847 0.07371288813559497 0.08428575387177686 0.04034263112059767 0.11084421905558037 0.025664952392733777 0.39954530446872766 -0.2211415089575595
-0.05804470308133775 -0.057382416289004826 -0.0842313352604455 -0.23787737745128665 0.2073619984986237 -0.26295031902109606 -0.026126886900583533 -0.1694568271618364
-0.12437441428429803 0.17115217841574895 0.008906162920068588 0.046112365942390016 -0.06649369498222324 -0.028468389528527004 0.11278739843185107 -0.005632414743071755
-0.10986617675030731 -0.1256526626824639 -0.04321498753433088 0.01789914968460285 0.2796759930043645 0.010453094633849639 0.03440159943652605 -0.10217842765187539
0.11057672309307719 -0.07529317448395023 0.11238088220427464 -0.06736916673212236 0.07403372784548994 -0.20847812291177553 0.0638961173608745 0.13554409238634693
0.09914706072824139 0.30918079515345864 0.009459422708526932 0.04421673229609775 -0.025908952804696173 0.28084482814398376 -0.0738797674314805 0.017068088471215465
0.05314573951055281 0.15685933415127123 0.02112304235911111 0.00843797787235703 0.10926234338225925 0.022945809932909504 -0.1530734787673699 -0.009891141300510492
-0.12852954607478834 0.052646841768175454 -0.13107120063134164 0.1133904034929767 -0.06661938255827289 0.2036293392876924 -0.138380404399047 -0.13239739655817828
-0.03063782244199157 -0.12545406607921547 -0.18283564475913705 0.012500725211187436 -0.07465020610840718 -0.24188622611761842 -0.10041454818983567 -0.00837755095060838
0.12255218627444057 0.12106572060273556 -0.16097071856957268 0.2159360593890611 -0.0019958545205510615 0.08255611122954028 -0.10404039796331244 -0.030539281638545693
0.07068115093606553 0.1411964450483938 -0.06648114846738196 0.09827511069429126 -0.08931502959149157 -0.11015691364896518 -0.1251927302289444 -0.1304091317615576
-0.03870912070950888 -0.1265798050179216 -0.1392022970717187 0.069093340085602 -0.14895260460351264 -0.2274995668418247 -0.1327928243911391 -0.16010357263318076
-0.08237483727606278 0.12426581371514031 0.11843292955277601 0.12322209743169611 -0.10913325231472613 -0.19887203681938448 -0.12099164955835594 -0.14866177798727095
-0.0535699397756115 0.10265266634297872 0.23680989315657588 0.08692222240690571 -0.11980647213419901 0.18704137447885852 0.14555941843721426 -0.23720048037620428
0.1315918255747423 0.16736010687980113 0.08165413835637517 -0.02635676355603891 -0.1272320780850402 -0.11095910765266086 0.011020656989309104 -0.00537982156222253
0.0659668622280612 0.11913184862493771 0.025191091792246774 -0.040070449399190355 0.0587488921254218 -0.21730249619024625 -0.022379572657900547 0.06673948180357447
-0.01750382929289983 -0.007047250404653093 0.11945651471357048 0.04368622790656467 0.04627067977527383 0.06473377275552765 0.10362671999645351 -0.18088626388855256
0.05721204334720872 -0.04432191812983635 0.03727193560665366 -0.2702740988440468 0.04700661361692917 -0.2967281463206105 0.03812957232100053 0.08659556991327991
0.059084636846546 0.03200263314013695 0.07087414476885136 -0.2799438276965729 0.055321424545783544 0.02371738579978314 0.012211552929528352 0.01331434977169846
-0.00897547510186508 0.051375039638754234 0.0849310826367024 0.05820886129178854 0.17674743620644806 -0.0024056586379288675 0.05873883151730017 0.10286520593438109
0.07149298400873333 -0.08536402071215608 -0.0326403664315474 0.02275113744957943 0.13421589398193556 0.008813594726050407 0.06768883328417125 -0.0033154375939798033
-0.1863434314845171 -0.11558377621566288 -0.06243226174914534 0.07209109460898906 0.0832543326792484 -0.0055313781219031655 -0.005253842867404105 0.26915469282439153
0.022530342306916026 -0.05138107753888317 0.04559227007490491 0.01775710798457026 0.0054129992478770235 0.06171853516665346 -0.02168341656521045 -0.061335849681137034
-0.09894592549019539 0.16399163698806532 0.044871146192842826 -0.0662895509281027 -0.01577553300188791 0.088220409775745 0.16036480721867702 -0.0037347648903583914
0.07962939933648314 -0.07374298760646704 0.03588020614145667 0.0193518078658618 -0.017533963450029822 0.24200686388219192 -0.13281315237825256 0.08182138156692816
-0.17713976425787326 0.050943657148273126 0.23360298805209 0.06673843597236859 -0.18680875516613613 0.14776506061408792 -0.05533570513225651 -0.029146463843988377
-0.12086315600453051 0.07667766254732954 -0.025455321429143245 0.05620432245240041 0.008844982417936664 0.04121009795323195 0.04105672323278636 0.015462827279801784
0.17044757308731942 0.041033585603342984 -0.05998899430137567 0.13612105998242555 -0.09010720540447448 -0.054490876226882735 -0.035758251875225786 0.07096496210346126
0.08646647196545197 0.38069425475597674 -0.0228219923519228 -0.10714773996951205 0.05664839871635552 -0.03261772380061997 -0.14892376012852862 -0.05142408017838528
-0.08540586385758513 -0.12711554192695054 -0.07165091228811976 0.09085325814132512 -0.060635776449243235 -0.17369311940428922 0.16182251497215222 0.16820737621264856
-0.19708545785947768 -0.06338867837516277 -0.23088534143919653 -0.06264465285105511 0.10876673920709846 -0.08503436499588107 0.304358233412433 -0.09970840771102446

b2 f8 [1, 64]
00000000: 43f7 f578 9dc0 d43f 6b1a b56d 0b1a a5bf
00000010: 7766 bc43 900b d43f 2dfd 98f5 83f0 a63f
00000020: 274e 8019 2cac d93f 62cd b04e 80f9 c0bf
00000030: 8f81 24e8 9075 b83f 9647 8c74 e952 14bf
00000040: 7815 6733 73b2 c33f ed0f bffc b9af b8bf
00000050: 2bdc d5ec c5cf d13f e813 9b2e 913b c43f
00000060: 49cb 7481 de15 973f b8ab c2db 841f 96bf
00000070: d3dc ecb2 3901 b93f d06d b826 59ab c53f
00000080: e711 fed5 5b57 cbbf 7e98 e78a 092b b8bf
00000090: baf0 7116 19b3 c03f 4f2c 8c0c 1dbb aa3f
000000a0: 1ef6 7de2 0e8f cc3f de16 0e2b bb95 a43f
000000b0: a248 3017 f5a4 da3f ecef 6b7b 56f0 bd3f
000000c0: 4f76 038b 8c15 d13f e3cd ae1b 5c7e b63f
000000d0: 320f 13a9 852b c83f 0a70 8f5a 557d a13f
000000e0: b83a e31a 8878 e13f af1a 15a8 dd1a cb3f
000000f0: 64e3 6da8 e7e4 b5bf dc19 7c44 3acb 9b3f
00000100: ca95 1ab4 208e c33f 5fd3 07ac 7952 e03f
00000110: 3059 e54e fd5c aa3f e86b 362f daa9 c0bf
00000120: 9412 39e0 c8c6 d63f 408f 590f f40a da3f
00000130: 456f e6dc b5fa a13f d4a2 4702 84fa 54bf
00000140: f82d 33e5 2eb9 af3f 94dd da47 f36d b63f
00000150: 996f 5505 3c06 da3f 4bd1 60a0 c661 99bf
00000160: 81ba e6f4 ec9b d93f de18 463c b285 c13f
00000170: 6c60 5fe3 d094 aabf b79c 9769 ee90 b4bf
00000180: 00b1 e70e 8e4c d4bf 64c5 a642 badc a7bf
00000190: e726 7247 b632 d53f 9b66 ee6e 14ea bdbf
000001a0: 76a8 cb34 b818 cf3f 3065 c326 110a af3f
000001b0: 68ff 8c88 d68f c5bf 9a30 e2dc a8d0 d03f
000001c0: 8ff7 cac3 a553 9dbf 1143 2bb3 b0ee cfbf
000001d0: 2815 26d8 8fa3 bfbf 62dc f140 2579 c03f
000001e0: bfd5 a4db 8dfb d43f bc8e f9bf 1a56 db3f
000001f0: a24b 4578 fe95 5bbf 388d 9b61 1c1f a7bf
0.3242562943704465 -0.04121432985498504 0.31320578207814925 0.044803737383057964 0.40113356104231673 -0.13261417238536938 0.09554391543907158 -7.752942941532804e-05
0.15388336191078245 -0.09643137379231322 0.2783064663739789 0.15806784415886388 0.022544361735707317 -0.021604610360252713 0.09767494791309454 0.16929163351674825
-0.21360347699022883 -0.09440669671275434 0.13046563716841836 0.05220881250542019 0.22311578807050209 0.04020485783170867 0.41631819977295426 0.11694851411078816
0.2669402463487573 0.08786559749460525 0.18882818942631158 0.03415934305641606 0.5459633374356008 0.21175738055372537 -0.08552406179468403 0.027142439298609364
0.15277489465840538 0.5100677833530475 0.05149070346912976 -0.13018348031331972 0.35588285347720583 0.4069185399914552 0.03511589356932502 -0.001280430712649207
0.061959710577493554 0.08761520866652567 0.40663052101967306 -0.024787047899921515 0.4001419440855117 0.13689258521134823 -0.05191662574333197 -0.08033647611556459
-0.3171725411946369 -0.04660589278808905 0.3312202165330817 -0.11685302456171558 0.24294188096911612 0.0606236800974308 -0.16845208804624723 0.26273557253512936
-0.028639402461287097 -0.24947174786077445 -0.12358950640744537 0.12869706793910313 0.3278536457977132 0.4271304011110535 -0.0016837105805122894 -0.04515923205851852

w3 f8 [64, 10]
00000000: f968 eed5 5e91 c73f 1a8b 36ac ea1d d8bf
00000010: 1502 267c 9349 b53f 49f5 2c66 ef27 de3f
00000020: 4cae 55f2 e38b cfbf f6ec dc23 5347 d53f
00000030: 81fc 756e 15a8 dabf 8d52 1ebc 756b e0bf
00000040: 8b52 b762 7bbc d83f 83a1 c436 491e a73f
00000050: 4428 2799 75e4 c3bf 340a e170 2e2f e13f
00000060: 9426 5058 86fc d7bf a0d7 5aea 3548 c0bf
00000070: d192 9ee9 1652 db3f 00fa b8e3 4998 c2bf
00000080: cb55 36e7 94b6 c43f c436 ae1b 742d cfbf
00000090: 9a5d 6e5e bdac bdbf b142 ff4b 768e d8bf
000000a0: ce04 18fd b5c8 e13f 6904 24b0 3fa0 b5bf
000000b0: b8f0 8cf8 d065 d5bf c202 e502 8078 abbf
000000c0: 607b 991a c784 d3bf 240d d4f4 e3d7 c9bf
000000d0: 9a9e 740f f40a d7bf a5fb 90ff 8044 a7bf
000000e0: c1c5 2f2a ba4d c03f 7a98 1424 5d9d e23f
000000f0: 9d20 3268 9c30 b0bf 7725 1aa3 b899 de3f
00000100: a3c3 063f 2c10 bebf d84d 0d91 13dd c7bf
00000110: 82d6 7b18 418c b4bf 1dc8 616b e7b4 d3bf
00000120: 9aac fd6e b8db abbf d2a9 12f0 baf1 98bf
00000130: a6d4 68a7 a5b9 d2bf 74b9 69d6 9099 c63f
00000140: e799 2b14 80f5 d43f 5a1b 59da 5a2b d43f
00000150: 36b2 60f4 01e3 bdbf 2e90 25eb 1444 d7bf
00000160: 4440 5204 e2fe d8bf f2f7 5939 510e d03f
00000170: 9a8f de31 d6fe d63f d7f1 4a23 bc28 e0bf
00000180: 084b 7e27 6fc6 d63f bbb1 0c24 f9a9 e2bf
00000190: ac6d 4e81 5e89 aebf 970c c2f3 5b17 dc3f
000001a0: 76ba 802c 263d e33f f301 280e 4075 c4bf
000001b0: 4e0a 8807 bc0d b5bf 32c1 2a4b 5812 aebf
000001c0: aa70 71dc 9da9 c4bf 5937 84cb 17d7 c03f
000001d0: 4a94 a056 72f8 d6bf 7d56 2f6c 8aac 3e3f
000001e0: 1307 355d dbf1 e23f 6223 705d 1542 b1bf
000001f0: 6564 37e1 ddc8 d4bf d2c9 fbe5 f05e c2bf
00000200: 3ed7 177f 324f c9bf 1c5d 873a b926 d6bf
00000210: 4343 ebb8 d578 d13f e044 fd3a c6ad c43f
00000220: b6c2 e73a f9d8 d1bf fdd0 e66f e852 d3bf
00000230: 7940 0f60 67f7 cdbf a367 c38c d602 cc3f
00000240: f582 f053 6e6b d5bf 108f 1540 f54d d03f
00000250: df34 85ae 2c02 d43f 6723 c717 e933 e5bf
00000260: 0f32 996d 23d6 ccbf b8d5 4cdd fc04 d53f
00000270: dc21 81e4 38ba dabf a0e0 706d f57b cf3f
00000280: b350 e536 1b55 c8bf a4fc 0fc1 87ff c5bf
00000290: dd10 70e4 b416 a03f d7a5 bf56 ab7a dabf
000002a0: a61d be1f c56e d93f 7a05 63cd 3796 dcbf
000002b0: bf19 270c 403b c8bf d837 be81 4b7a d63f
000002c0: bbda 3d58 7a0e c2bf b3dd 874f b666 d83f
000002d0: b7ae eb41 11ef cebf 308b ef89 5915 d2bf
000002e0: 9304 a4d9 5a9a ca3f b193 9915 d3c4 ca3f
000002f0: 8f88 2937 1067 ce3f c2ec 1108 ec8d c53f
00000300: 8a3a 81e2 6ae6 bb3f 1e95 f0cf d9fa e1bf
00000310: 5485 50ed 0c41 e7bf 9672 fe93 cf53 aabf
00000320: a3f2 800e 8765 d8bf ee54 25b4 ddf7 cc3f
00000330: 4c32 bdaa e082 debf ab80 1faf 8343 dcbf
00000340: d074 deef 56cd d83f 6122 b040 fb39 d03f
00000350: fcc0 65fc bf4e d1bf 3f43 e78d c82d c8bf
00000360: 7cac d46b e675 d63f 95cc f249 0a96 aa3f
00000370: 2fe6 0ce3 e283 b6bf 3d6d 68bc 817b d0bf
00000380: aeed db7a ebbf d3bf 82e1 cbda f26b d3bf
00000390: 3365 e7e5 ad59 db3f ac2e a86d b1b0 b1bf
000003a0: 44c1 62f5 4883 e03f f29c e8c3 1386 dcbf
000003b0: 87a9 a16a bffa d4bf f5f5 dff3 d302 dd3f
000003c0: 6d1c 5f3d 9fda cf3f b953 e003 c7cf ddbf
000003d0: 72e4 9abe fb69 bebf 59fe 2996 bd67 c33f
000003e0: 21e0 a77a 4bc9 d9bf a369 1148 c3dc cc3f
000003f0: e46c f0aa 1313 d73f 08e3 2c8e f41a cf3f
00000400: 8d7d d996 f02f 9bbf 57c6 508e b2bf d6bf
00000410: 74e2 cb3f 44c3 cfbf c670 99e0 b9ca d73f
00000420: 51f1 6f0a 63a2 d4bf aa0b 22b5 7a6c dcbf
00000430: ab4a 913d e394 d63f ccc8 7b2c bd83 d2bf
00000440: f104 dd8d 7ab7 d5bf cc4e 52dc 19e6 da3f
00000450: 01c0 2602 6714 a2bf 8acd 7b63 0d83 d6bf
00000460: 2bd6 b4f2 6be1 ddbf 6147 ea6a 7f93 e1bf
00000470: 5b4c 6a29 db73 e1bf 1796 8d84 f79e bd3f
00000480: b41f c8e9 17d8 debf 4ccc 256a 412b c83f
00000490: 40b1 4966 9f96 cd3f 8120 86ab 1d6c c73f
000004a0: b9a0 cd05 f930 ad3f 2c8e 6bbb dea0 b23f
000004b0: 48ce ba11 7b75 e13f 5600 c2c5 d308 b9bf
000004c0: 3f11 06a4 d30f e13f bf67 c0a2 28c3 793f
000004d0: 8a94 b0d2 b861 c2bf 5b0a 3d6e 914f c3bf
000004e0: 1787 697a dd55 cbbf a0e1 4f47 3c9c bfbf
000004f0: 731f 7ee8 e58f cbbf 6d3f 3bd8 72f2 99bf
00000500: 569e 149c a8f5 d0bf 7f11 762a 1f39 df3f
00000510: 9435 305d a70a cabf 6411 7a35 2592 e03f
00000520: 352a a383 39ab dd3f e7b3 2a8b da88 e13f
00000530: 3424 8fb5 137f e1bf c8a1 b09e 5bd9 c33f
00000540: 309f 08c3 32ae dbbf ff3d 98bd b8e5 dd3f
00000550: 50d6 8e81 2ca6 cf3f 0f9d 355e 80cb c83f
00000560: 6bd6 be26 9bc4 cd3f b910 390e e029 d43f
00000570: 45af 5eca 323d d6bf 865e ba0c cd05 d23f
00000580: 6ea4 ec34 319b acbf 326e 762e cc86 b93f
00000590: 99cd dfa3 eddb dfbf bdd3 badd 2d74 c6bf
000005a0: 1762 8a16 7cf7 d23f 7f2b 246c 2b4f cabf
000005b0: 04ae f985 d840 e1bf 1ecf 9a92 4d25 c1bf
000005c0: 1926 e08a a27a c93f 054f 2965 03f9 dabf
000005d0: e1f6 f170 ae0f cb3f 8f07 fe0c 23ea d03f
000005e0: 0033 6542 2246 e4bf 0cfe 4952 a7ca bb3f
000005f0: 8ed6 b5c2 c62f d13f 98ae 8669 20bb d33f
00000600: c2f2 d97d c7ca e13f eb65 2bf9 b04f d7bf
00000610: 45b4 9d3b 2ebc c4bf d472 9588 4006 ccbf
00000620: 402b bc86 db06 acbf 983a bd2d 8561 d0bf
00000630: 3abf 0db4 ac7b c1bf 7b4a 88af 2a3b b4bf
00000640: e601 6e50 c33d d6bf 4122 962e 7b6d bbbf
00000650: d480 79b7 cd39 aebf beac c927 f027 e33f
00000660: 316b 5167 6d25 d5bf aa5c f843 da8a e43f
00000670: 097d 0afd 9508 c9bf 745a 9fca b9e0 ddbf
00000680: 077d fff4 9377 e03f f178 76c5 ec31 da3f
00000690: 5d02 e435 5e93 d93f 8afe f1d0 374c b5bf
000006a0: d7ba 2344 9a61 d93f c87e f3c7 f270 d3bf
000006b0: 8232 1755 638c bb3f 67b0 77c1 0340 d1bf
000006c0: 28a8 f65e fd99 cbbf d777 a1e8 52fd dcbf
000006d0: 36c7 d00c c859 d5bf 0b58 af53 888b b6bf
000006e0: 4007 db42 4645 de3f 486b a18f 55fb cebf
000006f0: 9d5a 70d3 61b2 a23f 85b0 6ef6 40e0 773f
00000700: 6bfb bbae d849 b7bf f9f1 15ab b10b c6bf
00000710: d5ac 933d d912 c9bf b777 e88c c7b3 cebf
00000720: 812a 73c9 3a4f e13f c118 f673 f626 e43f
00000730: 97b9 86d3 9c82 a8bf 00c0 4300 beab e73f
00000740: 0613 4862 9fa0 c0bf beff 2699 062e d5bf
00000750: fe87 d4b7 ef9a c8bf 57f0 575d 4396 b33f
00000760: e7bd ce5b 6e27 c0bf 55df b610 2a9e c7bf
00000770: a338 2a2f cf57 e23f 2885 9e6e 4682 babf
00000780: b373 2344 53a4 c2bf 55e1 4047 8968 df3f
00000790: 1340 b4e0 eb08 e23f db9b e812 5b9d e13f
000007a0: f2f7 0748 e1a3 dabf 4fef f116 0d76 bdbf
000007b0: df1b b10f 549d dfbf 6e4e 097e 56a3 e13f
000007c0: c61c 2312 943c e03f 88b1 b03a a44e a23f
000007d0: cd8d 1493 1cc5 cfbf 7e74 d99d 671d d8bf
000007e0: 4a70 c6f0 5c8d db3f 6cbc 12b2 1f85 c3bf
000007f0: 0eab 879d d383 cabf e922 8c36 4a30 d6bf
0.18412385412086232 -0.3768259698646702 0.08315393238991249 0.47118744829261466 -0.2464566167139871 0.3324783182358283 -0.41650901591487616 -0.5131176637829228
0.38650402679676493 0.045152938781316564 -0.1554095266167811 0.5370094494504145 -0.3747878897125727 -0.12720369284732858 0.42688534559628716 -0.14527248019471983
0.1618219498601959 -0.24357463218296094 -0.11591704898307001 -0.3836951963576594 0.5557508414496171 -0.08447645235357161 -0.3343393733264395 -0.05365371737798831
-0.3049791106949922 -0.20190095381267625 -0.3600435400898988 -0.04544451827722832 0.12737204608815314 0.5817094521232911 -0.0632417444595625 0.4781323998255042
-0.11743427790385268 -0.1864342172872131 -0.08026511047122578 -0.30791650282401567 -0.05441070895070617 -0.024359627631079857 -0.29258099888404343 0.1765614554346474
0.32748414964444666 0.3151461727433592 -0.11674511162045395 -0.3635303779940412 -0.3905568163108948 0.2508738575050976 0.3593039977079059 -0.5049725236236168
0.35586146218081227 -0.5832486824124808 -0.05964179352232732 0.4389257317017807 0.6012144917675204 -0.1598281926271877 -0.08224082168457267 -0.05873371045652433
-0.161426289213414 0.13156411588027586 -0.3589139791459429 0.000468047899798797 0.5920235462619722 -0.06741460353090425 -0.32475993150507626 -0.14352236966767734
-0.19772940831870217 -0.3461134978837934 0.27300017412658323 0.16155317192400442 -0.27886801483604573 -0.3019353001393624 -0.23411266508492526 0.2188366114922334
-0.3346820659372008 0.25475817926620525 0.312632723264711 -0.6625867332851215 -0.22528498507962566 0.3284294282087461 -0.41761610331425714 0.24597041934771813
-0.19009723835427436 -0.17186066557767277 0.03142323769137232 -0.41373713943047846 0.3973858652102201 -0.4466685777407161 -0.18930817216296522 0.3512142912885543
-0.141066830717781 0.38126905218765755 -0.24167075842648497 -0.28255308599743767 0.20783553721415568 0.20913160853083704 0.2375202435824275 0.16839361566585437
0.10898464231397945 -0.561871439106344 -0.7266907343911648 -0.051420676055589684 -0.3811967507970541 0.2263142709368035 -0.4767381350873492 -0.4416207513986687
0.38753293442443937 0.2535389072150221 -0.27043151519957553 -0.18889719895244103 0.3509460499796615 0.05192596581164214 -0.08794992488119456 -0.2575382556840003
-0.30858885763128796 -0.3034636627849282 0.4273485894351154 -0.06910237242862632 0.516026000279489 -0.4456834233446464 -0.327804426319425 0.4532976037588406
0.24885931488663307 -0.46580672625105596 -0.1188046779960972 0.151603411028179 -0.40291106203176424 0.2254871465582485 0.36053935712125296 0.24301011030345188
-0.026550063330771635 -0.35545028589249256 -0.24814656367358945 0.37174841817410387 -0.32241130847230176 -0.44412105263489343 0.35283738148170113 -0.28929070800871837
-0.33932365278094695 0.420294251592378 -0.03531190778028304 -0.3517487975616055 -0.4668836469821566 -0.5492550934015804 -0.5453925904170193 0.11570689188155146
-0.4819392951035255 0.18882005389204648 0.23115913862728554 0.18298693537895264 0.05701425739135985 0.07276718211829153 0.5455909105571175 -0.09779094293662757
0.5331819728458312 0.006289633496658397 -0.14360723769747025 -0.1508657253526334 -0.21355789639624653 -0.12347771397606389 -0.2153289208620169 -0.025338930556983486
-0.26499381296387037 0.4878614344272804 -0.2034501271267969 0.5178400082082075 0.4635757241746064 0.5479557722188674 -0.5467623277737688 0.15507073639424918
-0.43250721975572315 0.4671460963736251 0.24725872350761557 0.1937103710181209 0.2325624407946408 0.31505586041408723 -0.3474852539318259 0.28160406344384403
-0.05587152262734994 0.09971309789983065 -0.4977983570417677 -0.1754205067315108 0.29635526849009025 -0.2055410650285374 -0.539165746374636 -0.13395089777406438
0.1990550211051392 -0.4214485633758474 0.21141605868245164 0.2642905833127935 -0.63356125800928 0.10856099852571094 0.26854104056051475 0.30829630189212187
0.5560033281359085 -0.3642389710708744 -0.16199281607569752 -0.21894079846506165 -0.05473981876101286 -0.255952162425197 -0.13658674995121506 -0.07902781281908659
-0.3475197110601854 -0.10713930022587538 -0.059034756323627896 0.5986252572160067 -0.3304093846287968 0.6419497802297844 -0.19557452064052708 -0.4668411711440179
0.514596918594095 0.40929717334246535 0.39961962950477475 -0.08319424487307905 0.3965821900773511 -0.30376882101516545 0.10761090114028529 -0.2695321454364205
-0.21563689362420857 -0.45296166150899125 -0.33360482455747176 -0.08806659739579474 0.4729781773458974 -0.24204511178217047 0.03651719766655968 0.005829099426517219
-0.0909705568883347 -0.17223187307162371 -0.19588771349604053 -0.239861434748432 0.5409215864722939 0.6297561898106993 -0.047871495076253705 0.7397146229905047
-0.12990181254294714 -0.33093419033320604 -0.19222828365406025 0.07651158360380471 -0.12620334131996389 -0.18451429191713467 0.57321891033077 -0.10355034065880331
-0.14563980891298697 0.4907553859552725 0.5635890377761846 0.550458466463961 -0.4162524417332626 -0.11508256731206966 -0.49397756130605147 0.551188703694107
0.507394824432503 0.03575623718674864 -0.248202869240329 -0.37679472365363853 0.4305031157798608 -0.15250011630039084 -0.2071480292500713 -0.3466973812760857

b3 f8 [1, 10]
00000000: a39e 89d4 e290 a03f 0ae1 fc99 3294 ccbf
00000010: e6d7 4af7 15e1 91bf 2032 6812 8419 77bf
00000020: 4f40 59d7 95a6 b5bf 9f74 9fc1 4232 d5bf
00000030: 3a2e bc72 13d4 c3bf 87c7 52a9 5612 c5bf
00000040: 6450 ae69 d134 e53f 7f71 b4ce 6dad c33f
0.03235539287999003 -0.22327263373313883 -0.01746019670346035 -0.005639568239086873 -0.08457314021620842 -0.3311926737640735 -0.15490954496668669 -0.16462214725248378
0.6626975120621066 0.15373013108263575
