model/parameters.npz (npz, 876526 bytes, 6 tensors)

w1 f8 [784, 128]
0	0x3e7a4a2709ff73df	9.793660860021576e-08
1	0x3e9992f1f75b01f7	3.8108236509115543e-07
2	0x3e975f01bf48d2a5	3.4825683251368405e-07
3	0xbe9f75cbabc56298	-4.68792602755595e-07
4	0x3e9357b63e02c6dd	2.882275662682038e-07
5	0x3e8c6ba41ba616b4	2.1174902349265064e-07
6	0x3e626af194010d96	3.430573025699086e-08
7	0x3e6b45487610b83b	5.079551957557617e-08
8	0xbe57e15f6c5ce48e	-2.2240320494296832e-08
9	0xbe7d6c4035672b4f	-1.0960867533671527e-07
10	0xbeaf19e80fa14e62	-9.268879062142728e-07
11	0xbe64361e2a33ed96	-3.764666203252487e-08
12	0xbe84e6c95c184206	-1.5572838489619542e-07
13	0xbe9729753befbccc	-3.451398775102584e-07
14	0xbe8d77b0bb822055	-2.1955028528899671e-07
15	0xbe91c1dcf477e058	-2.646040581917459e-07
16	0x3e7337c65919e8bf	7.159214578971344e-08
17	0xbea318a211c23f4d	-5.691117937068284e-07
18	0x3e71369699f1e3a7	6.412429919164352e-08
19	0xbe79d73d308cf26a	-9.626439746459024e-08
20	0xbe4afc1ef79e652f	-1.2565798835315929e-08
21	0x3eadff8c898d5d26	8.940171652799524e-07
22	0xbe657e2dab50b4f4	-4.0033616789976315e-08
23	0xbe7f67958a7e2f1b	-1.1699134694185404e-07
24	0xbe830e80e2939117	-1.4198313750332432e-07
25	0xbe9d1c0fdf54b6ec	-4.3376709808999096e-07
26	0xbea08605dde1a30a	-4.924394792052205e-07
27	0xbe9fde377d98ad97	-4.7487071483622747e-07
28	0x3ea4e87be57467da	6.23111143935357e-07
29	0x3e89307c52b6fdcf	1.8767563268565116e-07
30	0xbe57b1d06f0d81ad	-2.2067303487458553e-08
31	0x3e8093b554b27ef5	1.2350816755868342e-07
32	0x3e90f49809bfcad3	2.5265581782213484e-07
33	0xbead083cf7b983d2	-8.652263967062404e-07
34	0xbea25ab106d3c6b4	-5.469996843516802e-07
35	0xbe837f02da8d66af	-1.4525754223997293e-07
36	0x3ea80aed144bd922	7.165277016985562e-07
37	0x3e7a9082ee8495cf	9.896046615896179e-08
38	0xbe645459060d4b00	-3.7866613628248575e-08
39	0x3e87545787794f23	1.7381802640497658e-07
40	0x3e7e936c9d88851b	1.1390401456107946e-07
41	0xbe85fdd49f68e4cb	-1.6384963404269697e-07
42	0x3ea36997d1e30d4d	5.785367738420918e-07
43	0x3e897366d1bc4cdf	1.8962314462436145e-07
44	0x3e914ed7cc77150d	2.57909004788428e-07
45	0x3e5d73ed1cb8fab7	2.7430091793655165e-08
46	0x3e937444162dbedb	2.8988963245763475e-07
47	0x3e9454ee537635f2	3.0296685645737455e-07
48	0x3e75020145ed1e78	7.82602724683215e-08
49	0xbe8753fd5d82e040	-1.7380777595443066e-07
50	0x3e968ef11009e270	3.3614584541529117e-07
51	0xbe8f3f2152d85c37	-2.3280532827969806e-07
52	0xbe88a1953f658b85	-1.8351661852229923e-07
53	0x3e92ae4db8c1a6a2	2.7836670635790105e-07
54	0xbe8a5bafd1058337	-1.963835321123912e-07
55	0xbea09900352e4350	-4.946487969105721e-07
56	0xbe8e98a60e656d96	-2.2796007854539875e-07
57	0x3e9680b203de9921	3.3531660281262893e-07
58	0xbe86e348c288101c	-1.70527614487657e-07
59	0xbe91e1302fa1be56	-2.664274202429078e-07
60	0xbe7e1726677e2c30	-1.1209558603405817e-07
61	0x3e8e2f3e05b2be83	2.2489234905363785e-07
62	0x3e6cf585bcc4a18b	5.394047483876396e-08
63	0xbe8345ed4e473438	-1.4359617418608497e-07
64	0xbe8bb8eafeddb7f2	-2.0654749682428887e-07
65	0x3e942b66064f698f	3.0054935101571485e-07
66	0xbe7596a633637aa5	-8.042333097004532e-08
67	0x3e813897f989d99c	1.2830696218312308e-07
68	0x3e75c8f28a6a6d07	8.11552661552031e-08
69	0x3ea87c2e80908899	7.297123839659468e-07
70	0xbe66458141edcbf6	-4.148390807855378e-08
71	0xbe795afafdd7c2bc	-9.445619705124368e-08
72	0x3e78814e9a0c90db	9.128863221998469e-08
73	0xbe80129692283080	-1.1975027643140293e-07
74	0xbe76354da7a7b614	-8.273205224343317e-08
75	0xbe8fbc83f8d5572a	-2.3645452211045693e-07
76	0x3e7c0c9cc3af420f	1.0449166236372636e-07
77	0xbe7b819d26b153e0	-1.0246896813119434e-07
78	0xbe974f04f905460b	-3.473262433400848e-07
79	0x3e569b0e6a37c4cd	2.1053188204880707e-08
80	0x3e90e529a82d6638	2.5175760514292465e-07
81	0xbe48b924f80c669e	-1.1512646615153855e-08
82	0x3e9489e30633d6c2	3.060492927553466e-07
83	0x3ea7d6ee5782873b	7.104746791062339e-07
84	0xbe98981eddce9939	-3.6648245132566747e-07
85	0x3ea03e5adcfcddb3	4.840962279710898e-07
86	0xbe68f3519372b99d	-4.6473859810285926e-08
87	0x3e8eed2bbc83d852	2.3041999797746883e-07
88	0x3e77a4cf8516dd5b	8.807998710154477e-08
89	0x3e95ae3e7a4ac620	3.2306672385481296e-07
90	0x3e8a158de94b54f4	1.943424094071955e-07
91	0x3e9f586620cd9e6a	4.6708149241965065e-07
92	0xbe813a697bd371ff	-1.2835988442192834e-07
93	0x3eabc7893715061d	8.278917517439136e-07
94	0x3ea53a50c7dc5700	6.326375936195605e-07
95	0x3e4e75965efbfdfe	1.4183728829895835e-08
96	0x3e71e09f252a371f	6.659861044087192e-08
97	0x3ea03f9b71894796	4.84242010998501e-07
98	0x3e9134ba24fccbbf	2.563888630180279e-07
99	0xbe98eea5664bc0fb	-3.7151889946321983e-07
100	0x3e5f1b48b9019252	2.897025869231456e-08
101	0x3e642608359f77b0	3.75296227009736e-08
102	0x3e99e1142e44ef64	3.856303421206045e-07
103	0xbe411424db06cb1a	-7.952883546894956e-09
104	0xbe73cdfc55e6bff1	-7.377800190807944e-08
105	0xbea1dbdf30a7aaf5	-5.322359311587241e-07
106	0x3e8705dfd0455f03	1.7153431753723903e-07
107	0xbe9547a749f6cdb9	-3.1709516609275264e-07
108	0x3e82c85cea8038a0	1.3994178016434945e-07
109	0x3e9b0aaa776090c0	4.029521883961073e-07
110	0xbe949d0ad2f72e40	-3.071642877521703e-07
111	0x3e93b39ce1e1278b	2.935769049012912e-07
112	0x3e33bc4c44cec6a1	4.595038194495337e-09
113	0xbe4179d46ef1b187	-8.137849031978203e-09
114	0xbe975fdc57c03b92	-3.4830653539233667e-07
115	0xbe8063fbaa6821d3	-1.2211917983807213e-07
116	0x3ea4997537d97285	6.139112966419512e-07
117	0xbe88684e8bedb835	-1.8184966240779233e-07
118	0xbea16602025206f7	-5.185147570337612e-07
119	0x3e8521111f6b1e10	1.574245655692985e-07
120	0x3e84585bb5b565fc	1.515831752157248e-07
121	0xbe924d10d3c44b00	-2.727067174450765e-07
122	0xbe813e157d2d5014	-1.2846675064937114e-07
123	0xbe60cc3f527f00fb	-3.128841746759078e-08
124	0xbe9a4586e90e87ed	-3.914771947115639e-07
125	0xbe9521d929ba2671	-3.148946150296697e-07
126	0x3e7ad5e66624125e	9.997020236982685e-08
127	0x3e7a69766f802bab	9.839223114053526e-08
128	0x3e9f5d59a5ffe544	4.673696931685996e-07
129	0x3e95ebf94ccb3a42	3.2665986963729816e-07
130	0x3e9eecad98321602	4.608113146137501e-07
131	0xbe667e209385a4d8	-4.189588981540721e-08
132	0xbe9406356eab17bb	-2.983846189404556e-07
133	0xbe604dad76d9f383	-3.036750127487186e-08
134	0x3e964aa130755307	3.3216956337360606e-07
135	0xbe9a076173928841	-3.8785980256185543e-07
136	0x3e88c55bb1d0167e	1.8455781339314612e-07
137	0x3ea712dbed634eb2	6.876489020653756e-07
138	0x3e840eb406d29a27	1.494395322255325e-07
139	0xbe8bb0d835c4cb9a	-2.0631253051238994e-07
140	0x3ea0fce8a861a6c1	5.062796197944598e-07
141	0xbe852c2f2e4117bd	-1.5774812489789113e-07
142	0xbe8352612bb2bc05	-1.4395859246815477e-07
143	0xbead2c34b7494837	-8.694135958475935e-07
144	0xbe9784fedfb6df86	-3.504680703108926e-07
145	0x3e982a689622285f	3.6009637061822676e-07
146	0xbe92ef70922c79c2	-2.8215812812758123e-07
147	0x3ea1650d3b1960ba	5.184034447920499e-07
148	0x3e7fdf326058f87f	1.1873193991264003e-07
149	0x3e90e00b372efa94	2.514596452694127e-07
150	0x3e7661bcaddaeaba	8.337864750965632e-08
151	0xbe9f27e06fee802e	-4.64257126903472e-07
152	0x3e90316ce374d554	2.412955128651185e-07
153	0xbe6fce78ec5df3f7	-5.9244283741822097e-08
154	0xbe86a3dee1723409	-1.686820360929293e-07
155	0x3e65e5e82b0178f3	4.078834103868354e-08
156	0xbea1af7c1271a1d8	-5.270685833449487e-07
157	0xbe455d6b2687e168	-9.948814398163618e-09
158	0xbe6c769235a05b39	-5.301678270024279e-08
159	0xbe6605d29db22769	-4.10205591378958e-08
160	0x3e9564cb950f4038	3.1879144040975906e-07
161	0xbe91649d8607fc3a	-2.5917632309741416e-07
162	0xbea70c951ac1c7fb	-6.869182036641023e-07
163	0xbe6b17120bdc570a	-5.0459278961934374e-08
164	0x3e7135d8e8dec562	6.411351646700132e-08
165	0xbe86e6184f43bf8d	-1.7060941782205034e-07
166	0xbe831d65bb935c03	-1.4241660809571798e-07
167	0x3e85922caaeea7b2	1.6071642991210947e-07
168	0xbe80fc80b0fe4871	-1.265580853419181e-07
169	0x3e6036dd6fb66a23	3.020151769923063e-08
170	0x3e68ae0f23e0f01e	4.5969930515384216e-08
171	0xbe94e9317a1a75a2	-3.115968586294548e-07
172	0x3ea0d6322dbdc824	5.017728556945669e-07
173	0x3e8163f93618410a	1.2956948140840581e-07
174	0x3e9c020dbd1f693d	4.173520525820425e-07
175	0x3ea1daa57758b97b	5.320932660641024e-07
176	0x3e884b53a4598df0	1.810062306039404e-07
177	0x3e441a73fef9f896	9.361343671811222e-09
178	0x3e8ac31987c585d5	1.9939324492471638e-07
179	0xbe9f69f9e0fad469	-4.6810461727258323e-07
180	0xbe8f2b13e23a7925	-2.3222172372979123e-07
181	0xbe8cdb959313f5f7	-2.150070002384527e-07
182	0xbe6cf83a572ac762	-5.396015980342393e-08
183	0xbe968e167ce39d2a	-3.3609614725903903e-07
184	0x3e61ee553fe1fdc3	3.339906838681665e-08
185	0xbe908b399e4d7f09	-2.465225448690941e-07
186	0x3e83e6d8fde53e1b	1.4827958145579197e-07
187	0x3e65e8c2b3fcded1	4.0809104094627336e-08
188	0xbe9a6886269b891b	-3.935142901379514e-07
189	0x3e8fabb01a754b28	2.3596477414597052e-07
190	0x3e801f995209266a	1.2012893881229942e-07
191	0xbe94ba77320f7249	-3.0887695073674735e-07
192	0xbe86e86e07acbd57	-1.7067737075871574e-07
193	0xbe703b589d8a96bc	-6.046824497593362e-08
194	0x3e80c3a742c6f72c	1.2490355184678183e-07
195	0x3e9f2dcdfbdb17b0	4.646021770467625e-07
196	0xbe845e2c66179888	-1.5175241956030092e-07
197	0xbea3cb5ba12c1ded	-5.89918104005583e-07
198	0x3e84e51237fb6c02	1.556784603372016e-07
199	0x3e9ba0bcb5aa9831	4.1168748558318736e-07
200	0xbea219833de71075	-5.394118678882529e-07
201	0x3e94e1afa6f71eeb	3.1115988627067594e-07
202	0xbe83507013c17b18	-1.4390207947724699e-07
203	0xbe9947d05b708ea5	-3.7670914871028723e-07
204	0x3e85c1d057d5eefc	1.6210291768267287e-07
205	0x3e59c7841b0d6745	2.4008899482528102e-08
206	0x3e884043d38301c6	1.8068429042361425e-07
207	0x3e932246be526e9c	2.851172083513378e-07
208	0xbe55af31fb324518	-2.019513063424665e-08
209	0x3e73ffb26baf5fd1	7.450139609345281e-08
210	0x3e761d3f7fa37410	8.2382001584611e-08
211	0xbe88c14c1ee1a2b1	-1.8443962751807984e-07
212	0x3e7868322711150a	9.092321719233516e-08
213	0x3e810758f8f61337	1.2687371196361794e-07
214	0xbe74bfddefb34e22	-7.729783739760764e-08
215	0x3e9ffc1484cf8469	4.766089929925014e-07
216	0x3e7273d0ef74526c	6.874057222425348e-08
217	0xbe701718af1c0a40	-5.994074194982244e-08
218	0x3e567d4ecae67d8a	2.094496370232696e-08
219	0x3e9d0dd7ce334a66	4.3293944269638194e-07
220	0x3ea52a0acbc97d1e	6.307431231303891e-07
221	0x3e3c61769749cdb6	6.60790032814128e-09
222	0xbea2642935cb9f06	-5.481020753624137e-07
223	0xbe8f03168343dbe3	-2.3105786939984172e-07
224	0xbe86b36605842b02	-1.6913395729124814e-07
225	0xbe516d0a47f89d3f	-1.622916956218464e-08
226	0x3e56b03cb1fa6f52	2.113024344264975e-08
227	0xbea2d8b55853490b	-5.616699786609539e-07
228	0xbe876cdc6d38e1ad	-1.7453162702727167e-07
229	0xbe954515bed63d38	-3.169456580182054e-07
230	0xbea0b41f1ed7dc45	-4.978060680883885e-07
231	0xbe958902490349c8	-3.208993542117296e-07
232	0xbe88d68ef164be79	-1.8505840477513197e-07
233	0x3e99e6f17f98400c	3.8597170223895396e-07
234	0xbe9a90b4464f45b5	-3.9585308392067855e-07
235	0xbea4b1339380f4d6	-6.16675413851439e-07
236	0xbe7d90d6b24c8c34	-1.1014109853025074e-07
237	0x3e62e9c5a2caf18b	3.522852796064548e-08
238	0x3e80838ccfa855e0	1.2303789971637629e-07
239	0xbe5cf64b83fe189e	-2.6973048016940733e-08
240	0xbe58a174413f88af	-2.2939108459861767e-08
241	0xbe80b26594d72896	-1.2440131984113336e-07
242	0xbe72bcbd92f09570	-6.980176146859756e-08
243	0xbe84159a0760a045	-1.4964030342732105e-07
244	0x3e778131c5bd6e34	8.756170316369945e-08
245	0x3e64aab67f4cd4d8	3.8495002663299387e-08
246	0x3e69edd82c9ca719	4.8296674727490963e-08
247	0xbea4b7b05e07e748	-6.174306542143754e-07
248	0xbe8c851895c46907	-2.1248986115872785e-07
249	0xbe99b52897f4b820	-3.830738463825285e-07
250	0x3e86b3269e3092fe	1.6912674913427091e-07
251	0x3e88f707200bcc47	1.8600339048817006e-07
252	0xbe0421bf996f1bd6	-5.859133619841627e-10
253	0x3e8e6c2f7e698774	2.2666603101671927e-07
254	0xbe85cddab265d5ad	-1.6245334073418846e-07
255	0x3e91729c24cbbf3e	2.5999091661422724e-07

b1 f8 [1, 128]
0	0x3f7bb00b17dfb06f	0.006759684880290092
1	0x3fc24b072ff81525	0.14291467516174197
2	0xbfb09b949fd6004b	-0.0648739710068195
3	0xbfb142bcbb5f493e	-0.06742457937733534
4	0xbf759333901115ad	-0.005267335335763884
5	0x3fb589b75362b0d2	0.08413263116625849
6	0xbfc2a055ae9b310e	-0.14551802659696772
7	0xbfbece6f3561d75d	-0.12033743909145529
8	0xbf9ffcfc5c58d28a	-0.031238501678859033
9	0xbfb52a60273bd743	-0.08267785032134349
10	0xbfce8160f1cb90df	-0.23832332426457634
11	0x3fcb1799675bc7df	0.21165769144823707
12	0xbfc1a76afcce5f3f	-0.13792168945360037
13	0x3fa7215d148be5b9	0.04517641902743769
14	0xbfbab6e84dc3c9c4	-0.10435344599299073
15	0xbfa6793dc1d5cca1	-0.04389374724532869
16	0x3fb3a3fa9cb8cc9b	0.07672087026803569
17	0xbf9a6604e620b53e	-0.02577979712093747
18	0x3fc376359a954763	0.1520449642944711
19	0xbfa1f1923dbf7614	-0.03504616740950098
20	0x3fa95a95d3cd5d64	0.049519235710870274
21	0x3fc11d65625b621d	0.13370959570490096
22	0xbfc3f66b0e7eebd3	-0.15595758636285825
23	0xbf8246575666e40f	-0.008923227619435562
24	0xbfcb485921a0f6be	-0.21314539091138401
25	0xbfbe0bc901d62c62	-0.11736732764090754
26	0xbf9559855232f15f	-0.020849307195690666
27	0xbfcbe15982a9b626	-0.21781462554956582
28	0xbfc94c5dea662a4e	-0.19764303155200696
29	0x3fbe38437fba12fb	0.11804601543742514
30	0xbfb96764a181b0c0	-0.09923390334160143
31	0xbf8c54f499ad543c	-0.01383391469941319
32	0x3fa94acb6503c827	0.04939876182642449
33	0x3f68831702c0513f	0.0029921960285809453
34	0xbf78e1d7f5656e88	-0.006074756229590535
35	0xbfd3145d788acd21	-0.29811798831652153
36	0xbfc1bc31054bab7d	-0.13855564840863713
37	0x3f7121b685f215f1	0.004182541829441431
38	0xbf9dec0a7e61ff0c	-0.029220737422746487
39	0x3fb9bcab50c510ca	0.10053511354368819
40	0xbfc036c9f96b6596	-0.12667202643096392
41	0x3fb00be8f2f82b4b	0.06268173152799965
42	0x3fac02061b4336a2	0.054702940776775635
43	0x3faf82579b39cff2	0.0615413071617751
44	0xbfa4592125e507de	-0.03974250400143807
45	0x3fb8a8114179fb7b	0.09631450508639532
46	0x3fb04764a85c81ce	0.06358937368759784
47	0x3fb9f516bc3d44e6	0.10139600845038252
48	0xbfcc74ca407ceb5f	-0.22231414936853874
49	0x3f9e44fa2320f3ed	0.0295600017491217
50	0x3fb327cec845a54d	0.07482616795973236
51	0x3fc289b361c35a5d	0.14482729219044446
52	0xbfbf62de182e31b0	-0.12260234918921387
53	0xbfc9c3a102c2d99a	-0.20128262171574535
54	0xbfc823777bedbfef	-0.18858235884863414
55	0xbf9cd5113f327d8d	-0.028156537515881253
56	0xbfabb97b5c30f108	-0.054149489406400575
57	0xbfc0a9d7ed7841e5	-0.13018321128085045
58	0xbfa329f1b776ff31	-0.03742938389359408
59	0x3fb71ee56bd1dc87	0.0903151882392753
60	0xbfbeaacaf3850db6	-0.11979359097772754
61	0x3fb61e39453375c2	0.0863986772487442
62	0xbfad9af48bb2468c	-0.057822839787275176
63	0xbfa3fb47005bfec8	-0.03902646903406787
64	0x3fbba35545788e16	0.10796101518695198
65	0x3fb80531168dc3f3	0.09382921982411556
66	0xbf923365af3845f9	-0.017774189776963187
67	0x3fbf3d4580e5963f	0.12202867886443246
68	0x3fc14970053aec36	0.1350536370790409
69	0x3fa884dfbc137ca5	0.04788874789095957
70	0xbfae9d9768e92da6	-0.05979607730531748
71	0xbfb676354a83cb03	-0.08774121350488077
72	0xbf98aab1cc09283e	-0.024088647917132493
73	0xbfbf08a7435fe2c6	-0.12122578997503827
74	0xbfc7da4cb7c9a33e	-0.1863494775200482
75	0xbfb88af58f1aed38	-0.09587034934786665
76	0x3fbb863e4fb30389	0.10751714177878403
77	0x3fa6eddf23cb7a9c	0.04478356658886648
78	0xbf99478b6b1cc980	-0.02468698350203047
79	0xbfbba379d2e3c043	-0.10796319388077884
80	0x3fb46e8ac0570373	0.07981173702047588
81	0xbf96d10f16fea5ff	-0.02228187158440242
82	0xbfbb349c3fdbb213	-0.1062715202239775
83	0xbfb6f49b69e8395b	-0.08966990790961431
84	0x3fa02c2473f9c073	0.031586779744316916
85	0x3fb909be8565362e	0.09780493504259688
86	0xbfc138afd087b6b9	-0.13454244310508104
87	0xbfbbe07dcc9e9f49	-0.10889421697231429
88	0xbf8a0a46acbecb31	-0.012714912554519483
89	0x3fb31d1dc0904d88	0.07466302825223725
90	0xbfbcda7d7920f1f8	-0.11270889479869328
91	0x3f66c10dc52ad8be	0.002777602095501568
92	0xbfb8947c28c209ab	-0.09601570124690421
93	0xbfb834c275bc548a	-0.09455504774480708
94	0x3fb86dfbebdad00a	0.09542822368786133
95	0xbf7f1fd91298939b	-0.007598731937410809
96	0x3fb5e1dab1b673ad	0.08547751272858646
97	0x3f93320da5399c00	0.018745625695739676
98	0x3fc27aee6f87eded	0.1443765682778201
99	0xbfb9297ec313ca09	-0.09828941595677788
100	0xbfb3f8fe51e117e3	-0.07801808833127626
101	0xbf764989267a1698	-0.005441222899781238
102	0x3f9766bdb7614f28	0.022852863614686886
103	0xbfb32378e6cde7b0	-0.07476001391287812
104	0x3fa7e84eb72cded3	0.04669424043680483
105	0xbfc16215f04170ab	-0.13580583792907439
106	0xbfc61b67005c5dcc	-0.17271125333421222
107	0x3f91bbac15351475	0.01731747512282707
108	0xbfba8b5c0454b7f6	-0.10368895631538053
109	0x3fbaa617495e05d0	0.10409684697335497
110	0x3fb61ec6106663cc	0.08640706920995384
111	0x3f77c27b5dd858f9	0.005800706768715574
112	0x3fa7269f70917fb3	0.04521654366612839
113	0xbfcbd132e8b1f62f	-0.21732174264973156
114	0x3fb0551bf0a6d25e	0.06379866242679941
115	0xbfb263db25bdc6b1	-0.07183618232172752
116	0x3f8ab59082c20d1f	0.013041619291704052
117	0x3fa170693d1ecc7f	0.03406075354669102
118	0xbfb3ad97fcf82d95	-0.07686757970821241
119	0xbfb52781a205b0d3	-0.08263406949635348
120	0xbfb0fa2ef31b01ba	-0.06631749568169357
121	0x3fad0d1f98a50003	0.05674074877106252
122	0x3fba2718c2886ade	0.10215906857812793
123	0x3fa6d29c6240b8ac	0.04457558345198839
124	0x3fb31da0c31806ad	0.07467083704980366
125	0xbfc10093eb17e59c	-0.1328301332394347
126	0x3f8856ecc1bae475	0.011884545957729234
127	0xbf8b2d1e5cafa63f	-0.013269650653415897

w2 f8 [128, 64]
0	0x3fc7779a14676bd7	0.18333745952881372
1	0x3fbcb81be4cbf848	0.11218427978380519
2	0xbfc927b9093c41b1	-0.1965247435659996
3	0x3fc27ea6a18b274e	0.1444900788104015
4	0xbfb8c9bcae62dbc0	-0.09682826287722346
5	0xbfc23156d202765c	-0.14213071112037567
6	0xbfca88701ccde359	-0.20728875547845396
7	0xbfb769a95b2f8840	-0.09145601726734842
8	0x3f7ed98cb708d559	0.007531690280804548
9	0xbfc518629552a1cc	-0.16480667391921455
10	0x3fb721cee13df1f2	0.09035962103911979
11	0x3f90463e1a4cd6b9	0.015892954211458064
12	0x3fc1ca717acdc92e	0.13899057861596859
13	0xbfd2aab4dced045b	-0.29166909765996757
14	0x3fa9892632fe5952	0.049874490475462566
15	0x3fc336fb3cdef286	0.15011539909564336
16	0xbfb2eb469de7300b	-0.07390252451949679
17	0xbfc396090a3a6ccf	-0.15301621436524335
18	0xbf697458a72d334e	-0.0031072360519942893
19	0xbfc1bcd0a05b98a5	-0.13857467489214517
20	0x3fb08fb53d646635	0.06469280957062369
21	0xbf97c1ea6cc0211f	-0.023200667274097527
22	0xbfca2d269867e08a	-0.20450289193809496
23	0xbfbe4e86ac4b86a7	-0.1183857126848361
24	0xbf825d2b8c56b829	-0.008966770382212346
25	0x3f9914e36e429b6f	0.02449374542689092
26	0x3fb1033e93c39818	0.06645575625916
27	0x3fb2fd43e93a248c	0.07417702144643296
28	0xbfcd9a5708236bde	-0.2312725820291623
29	0x3fa782772750d1d6	0.04591724734237672
30	0x3fa096ecded1d6fb	0.03240146846739652
31	0xbfa2fba89ae53aec	-0.037076252849706254
32	0xbfa7481b9e9c684f	-0.04547201453370119
33	0xbfc8d969d39e148e	-0.19413492997060583
34	0xbfc28a2b3ade00c3	-0.1448415791928764
35	0x3faad39607db59b0	0.052395523509108144
36	0x3fab1a8803498c2b	0.05293679275634874
37	0xbf601b23290e627a	-0.0019660650945748067
38	0xbfb857462047a023	-0.09508169448929542
39	0xbfb96812fe495ed6	-0.09924429615181948
40	0x3fa88a887ff30c52	0.04793192445642859
41	0xbfd0d6020d231d39	-0.2630620125095962
42	0xbfbfab6a5c5dadad	-0.12370934252765294
43	0x3fd005951dc71c07	0.25034072788224687
44	0xbfa411102a72e35d	-0.039192681485878046
45	0xbfba876edfaa19f4	-0.10362904511030263
46	0xbfd1362025f1e563	-0.2689285631709792
47	0xbfbd0dc7a593a28d	-0.11349151413345222
48	0x3fbea937ae5dda7e	0.11976955420491639
49	0x3fb1343da252f698	0.06720338070860021
50	0x3fb3874d98bf582a	0.07628331164536975
51	0xbfb8e7a79c59c41e	-0.09728477065233718
52	0x3fc1a4eb355b27d0	0.13784542184140358
53	0xbfc0787b2cf8272b	-0.12867679305809906
54	0xbf79bdfda1f8317d	-0.0062847049262128
55	0xbfc4b6ad313feb0a	-0.16182484535951175
56	0xbfc0e28bcde926eb	-0.13191363863216252
57	0x3fba0228279756c4	0.10159541098195307
58	0x3fabcbd35aa63c11	0.05428944093284128
59	0x3fb3875af718be45	0.07628410847314011
60	0xbfaba3dc7a9b0729	-0.053984537092686864
61	0xbf77da1aa1966294	-0.005823234584931076
62	0xbfa8cf2eace25e51	-0.04845567570117438
63	0x3fb846fdeb424e6f	0.09483324998500973
64	0xbf8bbd25894654c3	-0.013544362308304142
65	0xbf958e79160beaf3	-0.021051303835501533
66	0x3fb330585f927747	0.07495643933586137
67	0xbfa787155a8ef728	-0.04595247965288102
68	0x3fc70e2f1ffed7d9	0.1801203638294158
69	0xbfb4143e9c186bdd	-0.07843390761301756
70	0xbfc0289bc9684f56	-0.12623927435253773
71	0x3fae01294093a87c	0.05860260880747689
72	0xbf61b238a4ca218c	-0.0021601778337904717
73	0xbfd09435c7475d3e	-0.2590460249025063
74	0xbfb9ef738b01fa39	-0.1013099874853446
75	0x3fb8c5e1aa7166f4	0.09676943217473505
76	0x3fb9655bb9eb5b95	0.09920285500571276
77	0xbfb446fe5fae8e6b	-0.07920827709181714
78	0x3fab0cc7b1f09486	0.05283187911144531
79	0x3f92a9360424b983	0.018223613741775956
80	0xbfb9e9f5835e01c1	-0.10122618157584552
81	0xbfc708d22231bbba	-0.1799566904987538
82	0xbfc75080d08b27c3	-0.1821442621497323
83	0x3fa86d7472df926c	0.04771007444631867
84	0xbfa6de45abc50eb8	-0.04466455194281366
85	0x3fcd6986e10d3253	0.2297829245457189
86	0x3fb7b8ae32d3a76c	0.09266175022972128
87	0xbfc6e1fcadad9954	-0.17877157669426913
88	0x3f8f388250837c83	0.015244501192169807
89	0x3fc7677413768e43	0.18284464788767893
90	0x3fbbac692b55e70f	0.10809953029629703
91	0xbfc2feabf8ee15d0	-0.1483969655493369
92	0xbfd3f88be567cc02	-0.31204507258297565
93	0xbfafe05254644d63	-0.062258312989935026
94	0x3fc6afcf8428a674	0.17724031403604423
95	0xbf88c4479f328450	-0.012093123956505775
96	0x3fba308f2fc41ae8	0.10230345646059968
97	0xbfb7f46a57636f3b	-0.09357323297029733
98	0xbfbcfe04948ffa31	-0.11325100543033596
99	0x3fc7f3bb1bcdd196	0.18712557656875778
100	0xbfc3803783d7bdbe	-0.15235036790498485
101	0x3fac83438d54a837	0.05568896389225169
102	0xbfc5898a7389d372	-0.168259912886835
103	0xbfca3dad9e2e493a	-0.2050072691313945
104	0x3fa02570495c1400	0.03153563399795445
105	0x3f9bb45b280855af	0.02705519134368267
106	0x3fb51ca6059bf78b	0.08246839177078706
107	0xbf87a2da030a2922	-0.01154108354355238
108	0x3fbfc099a696ddf5	0.12403259579775024
109	0xbfc3c9ee498dc4e0	-0.15459993926518845
110	0xbfa1cbcb98eed6c4	-0.03475795976502874
111	0x3f6d4240895fd5e0	0.0035716305237609575
112	0x3fc73b057261b0c4	0.18148868641890747
113	0xbfaba427480ff68e	-0.05398676638286047
114	0x3f9d094ff94798d3	0.028355836477111773
115	0x3fadf3e701ca564c	0.05850145241599289
116	0x3fa62b1f683d95fc	0.04329774997203725
117	0xbfd73adaf1001c04	-0.36296723876188275
118	0x3fd04d2d7e822946	0.25471055368747775
119	0xbf83ab385a0adf64	-0.00960392021930518
120	0xbfda8320ae6b200b	-0.4142533973031283
121	0x3fc38c20d926a795	0.1527138767535773
122	0xbfb3b5c0bf82228a	-0.07699207950111933
123	0x3fcb60b5841bb5a1	0.21388882589910188
124	0xbfc31ccc4b67974e	-0.1493163459955959
125	0xbfccad8cd749b0dd	-0.2240463305673818
126	0xbf989fcf2c1efe8c	-0.024047123973785875
127	0xbfa6dc2ad4bc3c26	-0.04464849326006286
128	0xbfd51c7a620b0d86	-0.32986316275147265
129	0xbfbbc816ec44f0c6	-0.108521874125418
130	0x3f9c5c1af21a133f	0.02769510367081129
131	0x3fa58bdceb014ea5	0.04208269470896412
132	0xbfbfe31e14801b64	-0.12455928802965627
133	0x3fba2877dc531f20	0.10217999581356851
134	0x3fab5f5f5df2816d	0.053462009637999276
135	0xbf90a8de91aec42a	-0.016269185678258115
136	0xbfb652634f5993c1	-0.08719464003804857
137	0x3fb6910a25038c6d	0.08815062907847145
138	0x3fa5c9bcfaa3b78f	0.04255476531567048
139	0xbfc7075431a4a51e	-0.17991115974408783
140	0xbfbeba8412bce9f9	-0.12003350694150318
141	0x3fbfd5ab5f19dfee	0.12435408660701316
142	0xbfd01532535b509a	-0.25129373684218026
143	0xbfad99c1dfecfcd6	-0.057813700279888344
144	0xbf974f3534a91d16	-0.022763091410778
145	0x3f8814aa882dd083	0.011758167534687175
146	0x3fb49d3f16e2651b	0.08052439030361251
147	0x3fadbb96cf92b311	0.05807181629038472
148	0x3fb6bcab9e9a2651	0.0888163816654466
149	0xbfb07ffd5047c976	-0.06445296487780702
150	0x3fc941ddfcd03cea	0.19732260555654274
151	0x3fa5e6ac933438df	0.04277552887843838
152	0xbf5672ea9cd40e12	-0.0013701716555382143
153	0xbfca1401091cfc10	-0.20373547501546385
154	0x3fa2edea1268b124	0.03697139239042915
155	0xbfc927fa1e06ff68	-0.19653250185183002
156	0x3fb642c72d8f3205	0.08695645201004971
157	0xbfb9071ba64eda29	-0.09776470957044893
158	0x3fa95e3e01b53463	0.04954713602874319
159	0xbfa88ab2639e3d4a	-0.04793317285577332
160	0xbfaf5481974be12b	-0.06119160625343264
161	0x3fb7b55f787daa1c	0.09261128131553459
162	0x3fc3206c63442ed1	0.14942698332776286
163	0xbfc353af9bdbe398	-0.15099139318752175
164	0x3f9e3f0ca34b410b	0.029537389246628225
165	0xbfd5779cc1a3cd3c	-0.33542555723325385
166	0x3fa9c4b6094f7cc0	0.0503289114346841
167	0x3f7bcbccd75e80bb	0.006786155854484994
168	0x3f97383b88496132	0.022675447648311926
169	0xbfa7c38c7d3d3d58	-0.04641379383849181
170	0x3fa0ddc88bbb4dfa	0.03294207292278979
171	0xbfbd2a010683ac38	-0.11392218026200929
172	0xbfb5f7ea29f29319	-0.08581412815199164
173	0x3fcd3df193ca5f79	0.2284528705247302
174	0x3fabf95a3ad881e9	0.054636783297841
175	0x3fb982ee1bec9728	0.09965408498518669
176	0xbfa7ae08ba443f64	-0.046249649751301886
177	0xbfc1fcefee040e75	-0.1405315315424677
178	0xbfa3869803b730fd	-0.03813624425274218
179	0x3fa7340a1121a163	0.04531890353320269
180	0xbfc24d8eba47cd6f	-0.1429918679783486
181	0x3fc561cfcaa936da	0.167047475772441
182	0xbfb0b1785e3aa828	-0.06520798016086415
183	0x3f64ec88a0ec50b9	0.0025541943099459366
184	0x3fc6cdd9d73d9319	0.17815707216063784
185	0xbfb5c49b622e898d	-0.0850312342359187
186	0x3fac372391161046	0.05510817667075733
187	0xbfd1af2ae01bb63b	-0.27631637464114406
188	0x3fb74e961a300129	0.09104288234084791
189	0xbfb29d7069f7f1ea	-0.07271483027574957
190	0x3fc8d8f3f06626b8	0.19412087667688183
191	0xbfb334dd5d72198c	-0.07502540141476838
192	0x3fa7574ba949eeb5	0.0455878872062078
193	0xbf905416dca15ebb	-0.015945775238235465
194	0x3facef2271f96ceb	0.056511951840286866
195	0xbfb4bb6e7c2ffb15	-0.08098497898025088
196	0x3fd0accadde4417a	0.26054641408065715
197	0x3fb0a4e67870580d	0.0650161785164018
198	0x3fc452c8a4921f82	0.1587763598984076
199	0x3fc45185a6a79edd	0.15873785626830897
200	0xbf96c3f8820431df	-0.022231944022722657
201	0xbfc9a3d738f308ae	-0.2003125217507366
202	0xbf87589af9197e8b	-0.011399470068851577
203	0xbfa31a83a92e27dd	-0.037311663057223866
204	0x3fc5513ffb4c0a4f	0.16654205103266626
205	0xbfd162cfaa262d1f	-0.2716559564220961
206	0x3fc497d9e0976482	0.16088412729621743
207	0xbfbdd208794d600c	-0.1164861007831634
208	0x3fb25594ed65fb83	0.07161837383135432
209	0x3fd63d26a4bd00e9	0.347482357861749
210	0xbfa08ebe5ea873fb	-0.03233904748433499
211	0x3f702370a2841aab	0.003940048198507166
212	0xbfbfbe7f43c9a408	-0.12400050549480579
213	0xbfc2e03d16b9c416	-0.14746821984911723
214	0x3f9d0a055bdd910c	0.028358539325737772
215	0xbf9599867b43bbdd	-0.021093465112183785
216	0x3f9efb47bd5ae75d	0.030255433018033673
217	0x3fbbbe43594ef33d	0.10837193422680698
218	0x3fcc670e6fd47fc3	0.22189503155186516
219	0x3fba2c4f9df5a46c	0.10223863226350866
220	0xbf78a34fc7602e18	-0.006015121112806131
221	0x3fbcc340435e75a7	0.11235429425001674
222	0xbfc7332fb643e7e3	-0.18124958419485812
223	0xbfc29257c25c7563	-0.14509102812091176
224	0xbf86e48787f31dd0	-0.011178072773318087
225	0xbfc11a388aed04b3	-0.13361269744385637
226	0xbf40eb877be6a32d	-0.0005163585226926941
227	0x3fcd103b07349548	0.22705781795336066
228	0xbfb45dd64a809871	-0.07955684012321897
229	0x3fc415c3ddd50279	0.1569142182506942
230	0x3fbaf38df0caae6d	0.10527884606079292
231	0xbf7d7d50f368f58b	-0.007199588979856296
232	0xbfc12e97d4aa2985	-0.1342344082261883
233	0xbfc69216d3009290	-0.17633328726619313
234	0x3fa6e96ee03e618a	0.044749703286643586
235	0x3fbc883677d6bd2d	0.11145344186546842
236	0x3fc5cfa5821bccaf	0.1703993687911853
237	0x3f95c375efd4d1e3	0.02125343586267715
238	0x3fab8c1c5f4b24b6	0.05380333579302869
239	0xbfb4849ad6c1fe34	-0.08014838927373874
240	0xbf86e398e85d35e1	-0.011176294890584639
241	0x3fab5733973ec0b1	0.05339966984991074
242	0xbf7dfd14ece89a03	-0.007321435680330615
243	0xbfc75f4283d06d53	-0.18259459911574058
244	0x3f80fc24271fb7ae	0.00829342121502549
245	0xbfbaecf26e39ff31	-0.10517802420690427
246	0xbfc0e9d137da56dd	-0.1321355364531688
247	0x3fd03c61965af446	0.25368537600644847
248	0xbfceec6fb808c690	-0.2415904663662798
249	0xbf7d47c7e52548c1	-0.007148533668742186
250	0xbfc1a21dd3da0a68	-0.13775990337679223
251	0xbf91285f520774b2	-0.016755570775661872
252	0x3fbb45c7df68652e	0.10653351978580325
253	0xbfc71a004c9f55f7	-0.18048099271133797
254	0x3fb45dd900850c6e	0.07955700171173571
255	0xbfa8aa48e928f3ce	-0.04817416998091738

b2 f8 [1, 64]
0	0x3fc8453e74c5d1ad	0.18961315824311722
1	0x3fa61918992dc44b	0.04316021795137511
2	0xbfc868f9f713d767	-0.19070362629252743
3	0x3f866e0b9a1af63a	0.010952082291051036
4	0xbf97b9aa926301b6	-0.023169198212373586
5	0xbfbb43e78b20526e	-0.10650488993298676
6	0x3fc250c6fa10b54b	0.14309012613504488
7	0x3fcaafdfc46f9b7c	0.20849225131606974
8	0xbf9b617a411924bf	-0.026739034865646213
9	0x3fbf616d7e8c2acc	0.12258037890948542
10	0xbf62d7c751e4895e	-0.002300156876246336
11	0x3fc7d5035df767c7	0.18618814552502114
12	0xbfc6cd7ea1f05344	-0.17814619929472475
13	0xbfa147ce05bc49c9	-0.033750951957830795
14	0x3fc9c085a5643750	0.20118780685191462
15	0xbfc6e4263bc5fbb4	-0.17883756559964825
16	0xbfb78a9b74d825ab	-0.09195872881550453
17	0x3fd04a4bbfc3dd51	0.25453466155109533
18	0x3fe16464d0f38cc9	0.5435051041680704
19	0x3fa8d3be95d178a2	0.04849048212848685
20	0xbfc62e06446ed827	-0.17327955571607953
21	0x3fbdec0c2eb21a77	0.11688305034668099
22	0xbfb2a6159923e35d	-0.07284674633764383
23	0xbfa913e14cedaf09	-0.04897979797428149
24	0xbfd0171728d49e2d	-0.25140933024747164
25	0xbfa5d013cfd48ee9	-0.04260312950125728
26	0xbfce84cce85cfde1	-0.23842774721013796
27	0x3fc4a069f30c75d1	0.16114544265376066
28	0x3fdb72bb6d1f07a2	0.42887769371383844
29	0xbfbb1e1383a27373	-0.10592767680868835
30	0x3fdabdace4735194	0.41782686528792934
31	0x3fd67ce2e7072bec	0.3513724571354817
32	0xbf7cdb90a38f254e	-0.007045330997195022
33	0x3fc8d35e1cb09db1	0.19395042801737142
34	0x3fc423747b45e3d6	0.15733200091543037
35	0x3fcbbd83eba30550	0.2167210484094917
36	0x3fc3560791277e83	0.15106291377650302
37	0x3fbc66c93f8d04a3	0.11094339181456063
38	0x3fb1200a3b9c2209	0.06689514117545782
39	0x3fc99d881f7c2ef0	0.200119986890392
40	0x3fc9a40f0a9383b5	0.2003191758767834
41	0x3fd3627703ae7079	0.30288482055198745
42	0xbfb654144f671164	-0.0872204488615061
43	0xbfa1bb136078babf	-0.03463039925224142
44	0x3fc143d8387f8f43	0.13488295324997965
45	0x3fe128c2fe502adc	0.5362257926038541
46	0x3fc082a477040f75	0.1289868909008153
47	0xbfa273e78d4aebfe	-0.036040531156196196
48	0x3fd540ef3b1de3e7	0.33208828709717725
49	0xbf8b2840cc0fcd3f	-0.013260370471448566
50	0x3fd4431055a2ceec	0.31659324992072757
51	0x3fc2bbbb90f24167	0.14635414674240652
52	0x3f9905c356cb34f0	0.024436046764823638
53	0x3fd0e90f3574d2d6	0.2642248174700347
54	0x3fb9fe25b0d4582d	0.10153422896505111
55	0xbfb7615535ba2a17	-0.09132893144320807
56	0x3fd5b349ffa6d0ad	0.3390679356191509
57	0xbfc666c1aa91c9fc	-0.1750108797892408
58	0xbfc101d2455374e6	-0.13286808381136622
59	0x3fbc972074f69135	0.11168101172967655
60	0xbfb2f9f355897bf0	-0.07412644232088872
61	0x3fe08b6454ab336e	0.5170156148611633
62	0x3fdc675e8a7b1167	0.44380916141041954
63	0xbfaac50a1421db49	-0.052284541089582755

w3 f8 [64, 10]
0	0x3fe06f24fc9b5f68	0.513567441342258
1	0xbf920486ae67e255	-0.017595390696415986
2	0xbfc4dfcfecc519a0	-0.1630802064993988
3	0x3fd226aa64634fe4	0.28360996058949994
4	0xbfd1d4a7040abcfa	-0.27860427279206557
5	0x3fc507a04edb3b8b	0.1642952332535653
6	0xbfcc7a907d70ecc2	-0.2224903690820153
7	0xbfd1b672b1b91a81	-0.276760743673016
8	0xbfdf8c68bc16341c	-0.49294489257664664
9	0x3fcd61bcaf844b72	0.2295451981559285
10	0xbfc605b5aadcc2c5	-0.17204924433601412
11	0x3fe8e34bb9f77bd3	0.7777460701143987
12	0x3fe0293eb625a58d	0.5050347859916414
13	0xbfd32bb20c83c8eb	-0.2995419618811314
14	0xbfbd7224b142747e	-0.11502293899180135
15	0xbf9d838eebb07b6a	-0.028822167525614097
16	0xbfd0dde98da11f2a	-0.26354445296282114
17	0x3fe723e2001239bf	0.7231302262678624
18	0x3fd1ae85c5c2032f	0.27627701103488084
19	0x3f962c456e8bbac9	0.021653256294423415
20	0xbfc7be3b9dac3c13	-0.18549294661394863
21	0xbf924a28efc321fd	-0.017861022600103017
22	0x3fdff48cd2aa8c98	0.49930115292426924
23	0x3fc1358f314acfe1	0.13444700152251612
24	0xbfb6df1da9e97143	-0.08934197805632942
25	0xbfc834b66b6c9a66	-0.1891086601765039
26	0xbfc90493f5da6e58	-0.19545220856240308
27	0x3fe8280e950da28b	0.7548897658535493
28	0x3fbc0a308c92e083	0.10953048164344818
29	0xbfd578b013e31a69	-0.3354911989412473
30	0x3fbb01ff4f62a10b	0.1054992264568037
31	0x3fd220cddb2153e9	0.2832522048896054
32	0xbfcedb8fe822b5c1	-0.2410755046343365
33	0xbfdc8908f7ad470d	-0.44586395442193877
34	0x3fcf576f8a1ec1ff	0.2448558258452209
35	0x3fe19d7624092587	0.5504713729689436
36	0x3fe3e92d38d55133	0.6222139463448343
37	0xbfbe2ef4b760cb56	-0.11790399052624187
38	0x3fca15bd84c1a46d	0.2037884615158733
39	0xbfd3170e25434a46	-0.29828218115759275
40	0x3fc0a3fd0786c77b	0.13000452868942233
41	0x3fe0b3d0bbad0a7b	0.5219501176400877
42	0x3fe03b3034404aa4	0.5072251339464242
43	0x3fd593f2dc7350b8	0.33715507057537364
44	0xbfd05b41bfe49e87	-0.25556987514071533
45	0xbfe0b0ab38a8b0ea	-0.5215660196895702
46	0x3fbb0922efbf4d2a	0.10560816147999633
47	0x3fd349de1d44d2c7	0.3013835225895431
48	0xbfcd1c5f905d872f	-0.22742838429535925
49	0xbfc6fea05647d236	-0.17964557850759072
50	0xbfbaeff56aa71c21	-0.10522397855594125
51	0x3fc0e08ee24172e7	0.13185297057761788
52	0xbfc4ab95bcb92d40	-0.16148635592467464
53	0xbfd761da71d39669	-0.36534749141569606
54	0x3fd55f00478e1e96	0.33392340648468044
55	0xbfbc62ebd0ac4d9f	-0.11088441700512995
56	0x3fc483354c6e97b8	0.1602541564181459
57	0x3fe1cb30e2598aad	0.5560535832303991
58	0xbfd19542c03f6ca8	-0.2747351529521418
59	0xbfd2c5478eafe3c9	-0.2932909863880551
60	0x3fbaad2b7a5d95c3	0.10420486199799144
61	0xbfd24653724a6f4b	-0.28554235612113094
62	0xbf61144a9a435298	-0.0020848710138160025
63	0xbfc12de39e87fe2c	-0.134212925346206
64	0x3fdd4bcf2b8d64ed	0.457752029925884
65	0xbfd1d20ae011a8e4	-0.27844497567879345
66	0x3fdc6d8b75230fc7	0.4441860813060398
67	0xbfcd875e6086a714	-0.2306936236685081
68	0xbfaac841d4cee2ed	-0.05230909083133448
69	0xbfcb3d092a5aaf6e	-0.21280016487196057
70	0xbfd241528fba80d3	-0.28523696933735926
71	0xbfc9b4529423b49a	-0.20081550820706157
72	0xbfd3022a2f0c939f	-0.29700712771073684
73	0xbfd44aaa18af3193	-0.31705715571003984
74	0x3fd98fd750db02af	0.3994043626408183
75	0xbfcb60fc2ca6f8e4	-0.21389724903378415
76	0x3fe1c5d2cd6178b7	0.5553983699171771
77	0xbfd1ed83a5fae9cc	-0.28012171944615427
78	0xbfd880b00945abdf	-0.382854470305288
79	0x3fe2e5641d104b68	0.5905018394135881
80	0xbfb8223c7f621742	-0.09427240476551638
81	0xbfc283c7951f01b1	-0.1446465948229281
82	0x3fd38a561fe93793	0.30531838527974137
83	0x3fe06ac4c5f31d26	0.5130332819179884
84	0xbfb2d44ebd4ae642	-0.07355205651665478
85	0xbfcdf73a0a150e5a	-0.23410726063058257
86	0xbf95c824555fdab6	-0.02127129336437391
87	0xbfa92f7ff7fb6410	-0.04919052030681581
88	0xbfc475337c9d0512	-0.15982669434200908
89	0xbfcf278de146ae5a	-0.2433945989590594
90	0xbf4fef334f084538	-0.0009745598345622169
91	0x3f9715ef1950a063	0.022544608993627323
92	0xbfdb3b7328db0921	-0.42550353040509675
93	0x3fd6359df1b24a79	0.347022520095528
94	0xbfd054a0829025a7	-0.25516522169399497
95	0xbfd1ade74b489da5	-0.2762392268363903
96	0xbfb1ece7b68e23bc	-0.07002113539614546
97	0x3fd992f2f6230e75	0.39959405934153064
98	0x3fb86237258520a0	0.09524864831940016
99	0x3fc39b6f8a9acef2	0.1531810213833676
100	0xbfe5899d8c6f4be9	-0.6730487578264476
101	0xbfa425d195b7c17a	-0.03935103371248068
102	0x3fbbe58a3f005ff9	0.10897125280496302
103	0x3fce03c8a3294c46	0.2344904705701955
104	0xbfe213a8faeeec2c	-0.5648999119797558
105	0x3fd0ebafa9f04353	0.26438514323767953
106	0xbfd7d2605cb820ee	-0.3722153573476267
107	0x3fc037bad3cc52e7	0.12670073835092596
108	0x3fc17e45ca26b25e	0.136666034418698
109	0xbfdd9a6b7e225741	-0.4625500423220395
110	0x3fdadc1238e62dcc	0.41968207890087394
111	0xbfd37fc97b98b6e3	-0.30467450208639785
112	0x3fd976b8342d9a8d	0.3978710660507339
113	0xbfd0ac73f0e4ed8f	-0.26052568936184967
114	0xbfc2af99d8489262	-0.14598391590802168
115	0xbfe2943eabfcccb4	-0.5805962905054884
116	0xbfc804d18abb77ca	-0.18764704965627593
117	0xbfdb867a2394964d	-0.43008283114099727
118	0x3fc681c51bf4d7aa	0.17583526482638706
119	0x3fa8283f1e96b895	0.047182056888560066
120	0xbfd9c4b04030df49	-0.4026299120773627
121	0xbf66bccec9f466d0	-0.002775577435056721
122	0xbfdfe1fd1b8a321f	-0.49816825570522555
123	0x3fc60ca465413d30	0.17226080841144542
124	0xbfcff05b21bcfb06	-0.24952258250592524
125	0x3fd2d3d61b0cb3b7	0.2941794647365969
126	0x3fc1b1a012d8078f	0.13823319358931171
127	0xbfd7d8c17b8bb2e1	-0.37260472359666436
128	0xbfe5b7b6451a16ea	-0.6786757802626344
129	0x3fc880542dd41086	0.19141628492082335
130	0xbfc09bbb922f1e1a	-0.12975258481877533
131	0xbfccc481e273c4da	-0.22474692876088548
132	0xbfd631275802a538	-0.3467501029468454
133	0x3fd5aab6ddd034ec	0.33854457532363713
134	0xbfbdfc68046c69ce	-0.11713266475673054
135	0xbfd01ceff170fd1e	-0.2517661912751964
136	0xbf9729d1c9d64001	-0.022620466179034796
137	0x3fdc3b2a28dfaca3	0.44111112586569784
138	0xbfd476b1c66c5341	-0.31974453332195557
139	0x3fddc14bb3db1965	0.4649228340535017
140	0x3fe09ad7c71905be	0.5189017189624605
141	0xbfb7ae7031df8644	-0.09250546662908571
142	0xbfe580839a7ad6e0	-0.6719377534088515
143	0x3fb3c579fb8c0641	0.07723200217517336
144	0x3fc24be76e316858	0.14294140701787472
145	0xbfd0fded8e161262	-0.26549853206259943
146	0x3fe14e9e07adb282	0.5408468389483263
147	0xbfc4697d85d6a20a	-0.15946930918768515
148	0xbfde5032939f3bc2	-0.4736448709126614
149	0x3fa02f305625c22d	0.031610022083331614
150	0x3fd26142d805bedc	0.287186346969049
151	0xbfaf941c243c331d	-0.06167686407397908
152	0xbfd8e261baa31e37	-0.38881724573409165
153	0xbfce5fbc9ca6b6e7	-0.2372966542147232
154	0xbfd29d1edc1fe51a	-0.29083987709562253
155	0x3fd7995697203d7b	0.3687340236510505
156	0xbfa1ab48c678886d	-0.03450992033710141
157	0x3fd7fd1cea85b9d1	0.3748237886674391
158	0xbfda154e8d72689c	-0.4075504666631191
159	0xbfd1638a546a8e83	-0.27170046085141325
160	0xbfac8b9614a4715f	-0.055752458591288294
161	0x3fc743ef0fa8ca36	0.18176067604652396
162	0x3fd1ee665ae033e2	0.2801757705172446
163	0xbfc9a368ca6a4d3c	-0.20029935725742998
164	0x3fe2254dee3d994e	0.5670537617814178
165	0xbfb33d6439d488c3	-0.07515551006193548
166	0xbfa43514f4c499a8	-0.03946748245134596
167	0xbfcfa6a15a65b965	-0.24727265275891877
168	0xbfcec2da56df241e	-0.24032143823413404
169	0xbfcb09d5ff58adeb	-0.2112376686867344
170	0xbfa6eaca85265636	-0.04476006389010616
171	0x3fd57aa6e0b2dd27	0.33561107581359056
172	0xbfda56e82cf4b38a	-0.4115543784162631
173	0x3fc9bc91f6c6484c	0.20106720494783514
174	0x3fd7333c04445414	0.3625021020573638
175	0xbfd784da88180396	-0.36748374262247674
176	0x3fd6dec2f312fded	0.35734628427232346
177	0xbfd09397c556bf00	-0.259008352960322
178	0x3fc2cefb86f69cfe	0.14694160547262664
179	0xbfc24deaecf6076a	-0.14300285883296776
180	0x3fb98a1d6b0dac1e	0.09976371635063727
181	0xbfd1b3cc7c0fd0ad	-0.2765990459004211
182	0xbfe3938aae1349b8	-0.6117604637059264
183	0xbfd3fb82687a4d78	-0.3122259159365153
184	0xbf81a1975801e358	-0.008608991978904676
185	0xbfcd3bf1d1d29825	-0.2283918642544346
186	0x3fd6b9383bd2d06e	0.3550549110616491
187	0xbfde0dbbb1e4be66	-0.4695882069818026
188	0x3fe396a5f569da33	0.6121396821243422
189	0x3fd1f2bab2508d63	0.2804400197366787
190	0xbfd484c4e3a63c6e	-0.3206035826814916
191	0xbfc12e88e90c5f5a	-0.13423262957871424
192	0xbfcc7c8e4cadb59b	-0.2225511431128496
193	0x3fa5b827a6905691	0.042420615274903935
194	0x3fd906ad2b66af4c	0.39103249777212024
195	0x3fe36f4985b765bc	0.6073348628662454
196	0xbfd1e0e26c966371	-0.279350858728825
197	0xbfcf59686779335b	-0.2449160104028135
198	0xbfc1ecd3ec8efd2e	-0.14003991175375446
199	0x3fe518485eee6923	0.6592141965987007
200	0xbfdb74f0c00bc95d	-0.429012477440798
201	0x3fcc46dcd6dcacf2	0.22091255656537317
202	0x3fd5766e29f10d84	0.3353534135423717
203	0x3fd0071a5bb54c3c	0.25043353038671845
204	0xbfd29b7959ba3d08	-0.2907393814320618
205	0x3fd70156eec0b07d	0.3594567615098255
206	0xbfd93a72cbee9ff6	-0.39419240870711236
207	0x3fd6f8cb86c05187	0.3589352432184331
208	0xbf74fb8327f40c81	-0.005122673347844332
209	0x3faad51c3b1f9261	0.05240715238304428
210	0x3fd25f4c549fc6e5	0.2870665384681231
211	0xbfe103e5f413f138	-0.531725861277244
212	0x3fe017bda4c0dee4	0.5028980462875237
213	0xbfdb992e5f11db26	-0.4312244347014932
214	0x3fc266c17c4884b5	0.1437608582355431
215	0xbfde2d90ba932389	-0.4715310880679274
216	0xbfb54623aa2b3204	-0.08310149101743752
217	0x3fd6bb4bddd27de2	0.35518166220023606
218	0xbfd451cc884abebd	-0.31749261197817785
219	0x3fc673c653b50fb9	0.1754081639029417
220	0xbfe3329e179126ba	-0.599928899792949
221	0xbfe1bf84216bd9c2	-0.5546284344443893
222	0xbfc513ef849666e1	-0.16467088674544697
223	0x3fd9ce06519a20f2	0.40319974869682007
224	0x3fd7c21f30ff261b	0.37122325692016184
225	0x3fd736b3c7d38f7e	0.3627137614660042
226	0xbfe1b8c146907c5b	-0.5538030985079659
227	0x3fab44393e35542e	0.053254879802502195
228	0xbfde7b53603e2f0c	-0.47627720259400586
229	0x3fd85cf54315a082	0.3806737094041709
230	0x3faecc4c02d92f34	0.06015241179247113
231	0x3fdcf3ff59fc4582	0.45239242351188846
232	0xbfd2bae9911d7103	-0.29265822574031136
233	0x3fda56d50f0b313a	0.41154982060540457
234	0xbfbbe6c56f7f46c1	-0.10899003955935439
235	0xbfd17aed19bb8b99	-0.2731278182310973
236	0xbfb1792cca423cad	-0.06825523317296485
237	0x3fd055b89966c65a	0.2552320001660512
238	0xbfbe083016f68164	-0.11731243668191876
239	0xbfd8ba24db035570	-0.3863613261031196
240	0xbfb34e4c630698ae	-0.07541348855611105
241	0xbfd0fd4921b9c902	-0.26545933049705195
242	0x3fd35f94416aedca	0.3027086867184293
243	0x3fd37a96d6b09afe	0.30435725179488304
244	0xbfd6e5169a832508	-0.3577324398907682
245	0x3fd4c1965cb0d24e	0.324315634268065
246	0xbfd90f7f1af99ff9	-0.3915708316258129
247	0x3fd91e56f094a73e	0.39247678274351816
248	0xbfda7662fada1081	-0.4134757470822095
249	0xbfa0d492dda54eb2	-0.03287180858265283
250	0x3fe19a9b6ec2d9dc	0.5501229441932156
251	0xbfab0fbae7cd87a0	-0.05285438613533633
252	0x3fe672e7884cfb4d	0.7015264188884004
253	0x3fd9671ee36aad68	0.3969189854494375
254	0xbfb313d8e49dd32d	-0.07452159482438665
255	0xbfb2035493b199d7	-0.07036331754498036

b3 f8 [1, 10]
0	0x3fb18873a0f01329	0.06848833731789895
1	0xbfcc00e1cefa8c0b	-0.21877691847211653
2	0xbfc79455b3ebf431	-0.18421431813467984
3	0xbfd18d28726931cc	-0.274240600327883
4	0x3fb115a7f23020fb	0.06673669493477867
5	0xbfb5326a408428ad	-0.0828005225668302
6	0xbfb2d9663d0f4acf	-0.07362975111690705
7	0xbfc92ef247be1be6	-0.1967451906495789
8	0x3fe2eddefb1b57c9	0.5915369896344994
9	0x3fc7c48f66948292	0.18568604000849526
